example_best_model.pth (torch, 83462 bytes, 24 tensors)

embed.weight f4 [32, 8]
000000 a4 b0 69 3c 75 bd 99 3c f2 73 91 3e 5f 98 94 3e
       0.014263306 0.018767098 0.28408772 0.290225
000010 e0 61 b1 bc 61 5b dd bc ba a9 4b be c5 f9 cc 3d
       -0.021653116 -0.027021112 -0.19888964 0.10008577
000020 5d ec c5 3d b7 d6 7b bd 3f 60 57 3f d9 b2 c1 be
       0.09664223 -0.061484065 0.84131235 -0.37831762
000030 6b 03 8b 3d 0d 7b 64 3d 75 e2 32 3e d8 89 89 be
       0.06787761 0.055781413 0.17469199 -0.2686298
000040 86 1d c6 3b 8b ae 8a bc cd a2 c9 bd 25 49 e5 3d
       0.006046 -0.016928932 -0.09845505 0.11195592
000050 39 75 ad bd f3 92 21 3d 4b f4 15 bc b1 14 b9 3e
       -0.08469624 0.039446782 -0.009152482 0.361486
000060 d0 46 c0 bc c4 d6 cd 3c 77 67 e4 bd f2 0d b7 bd
       -0.023471266 0.025126822 -0.11152547 -0.08938207
000070 67 fe 5e 3c 0f 13 10 be 31 5a cd bd ca a2 0a bd
       0.013610459 -0.1406977 -0.10026968 -0.033846654
000080 5c f4 99 3d 60 bb 4d bd c8 10 5e 3d e9 48 6f 3e
       0.07517311 -0.050227523 0.054215223 0.23367657
000090 4d ad 69 3d bc d6 57 3d 72 66 d2 3d 54 af 50 be
       0.057050038 0.05269502 0.10273446 -0.20379382
0000a0 26 8f 00 3c 70 d5 a7 bb 27 5d 4a bc 32 b2 3a 3d
       0.007846629 -0.0051218793 -0.012351311 0.045580097
0000b0 6a fb a6 bd 5b b1 02 3e b2 aa 6c 3e 82 12 65 be
       -0.08153422 0.12762968 0.2311199 -0.22370341
0000c0 bb c0 cc 3c 4e 71 bc bc 87 ea 12 bf 33 11 1d be
       0.024994245 -0.023003247 -0.5738911 -0.15338592
0000d0 3e d0 37 3c 7e 33 14 be 0b d7 db bd 31 37 88 3e
       0.011219082 -0.14472768 -0.107343756 0.26604608
0000e0 b6 7c da 3a fe 25 29 3b c6 94 2f bb 91 62 e9 bb
       0.0016669247 0.0025809999 -0.0026791557 -0.0071223457
0000f0 bd 2a 64 3d 6a f5 07 3e 37 56 a4 bd b6 76 1f bd
       0.05570482 0.13277212 -0.08024257 -0.03893157
000100 61 4f bc bc 21 1f 62 b6 71 81 c4 3d 30 4f ad bd
       -0.02298707 -3.3694744e-06 0.095950015 -0.084623694
000110 e4 0c d4 bd 03 37 0d 3c 51 49 03 be bc f9 9a 3e
       -0.10354021 0.008619073 -0.12820937 0.30268657
000120 98 d1 34 3d 19 98 73 bd 91 9b 1f bf ad 97 7d 3e
       0.044145197 -0.059471224 -0.6234675 0.24764891
000130 16 74 cd bb 00 e5 a4 3d e1 2c a6 3c b8 7e ea 3d
       -0.006269942 0.08051491 0.020285072 0.11449951
000140 d0 0a b6 bb 32 bb 93 3b c7 8b eb 3d 80 91 4f 3d
       -0.005555488 0.0045083994 0.1150127 0.05067587
000150 c6 27 bf bc bb 1f ac 3c f1 32 bd bb b1 07 ff 3d
       -0.023334395 0.021011224 -0.005773895 0.12452639
000160 7b a4 5a 3b 69 0b d5 3b 2d 7e af 3c a4 60 96 bc
       0.0033362198 0.0065016043 0.02142247 -0.018356629
000170 aa 1e 4f be e9 aa 84 3d 88 7e 9e 3c ef 2e 16 be
       -0.20226541 0.06477911 0.019347444 -0.14666341
000180 57 d3 db 3b f2 1d 38 bb 64 3e 13 bd 7f d3 e4 bc
       0.0067085433 -0.002809402 -0.035948172 -0.02793288
000190 d5 ef 25 be 78 3f 88 3d 9d 43 1e bc 64 47 12 bc
       -0.1620477 0.06652731 -0.009659675 -0.008928154
0001a0 19 b5 9a 39 9c 1e c0 3a 25 6b 5b 3c 0b b8 58 3b
       0.00029508097 0.001465756 0.013392244 0.0033068683
0001b0 72 b3 17 3e 3c a7 26 bd 05 d7 40 3e 96 0b 4d 3d
       0.14814547 -0.04068683 0.18832023 0.050059877
0001c0 d8 36 bd 3d 9f 6f b5 bd 2d 93 80 3d 4b ac a4 be
       0.09238976 -0.08859181 0.062780716 -0.321627
0001d0 3f 5a be 3c 14 fb fc bd 2b 5c b6 bd 48 4f c9 bc
       0.023236392 -0.12352577 -0.089042984 -0.024573937
0001e0 96 59 15 3c 36 3b 0c 3c f1 cb 3d 3c 6d cc 40 3c
       0.009115597 0.008559039 0.011584268 0.011767489
0001f0 3f ec 39 3d 5f a2 1f 3d f7 d6 f7 bc 8e b6 96 bb
       0.045391317 0.03897321 -0.03025387 -0.004599399
000200 2a 20 ac 3b f8 37 c0 bb af b6 fb 3e b6 5d ac 3d
       0.0052528577 -0.005866047 0.49162814 0.084163114
000210 7e 09 27 3d 12 58 ec bc 59 9e d9 3d 5e 81 e3 be
       0.040780537 -0.028850589 0.106259055 -0.44434637
000220 dc 1a 0b 3b bd eb 6c 3a 99 fa 9e bd 12 db dc 3c
       0.0021225726 0.0009037813 -0.077626415 0.02695993
000230 84 f3 34 3c 60 4f d8 3d 59 90 42 3e 5f 53 41 bf
       0.011044387 0.105620146 0.19000377 -0.7551784
000240 94 44 94 3b f7 6b 47 bb 46 bd a3 bd 5d 08 76 bd
       0.0045247767 -0.0030429342 -0.079950854 -0.06006657
000250 d7 c3 98 b9 80 3d ee bb 74 be 91 be c1 a7 95 bd
       -0.0002913761 -0.007270515 -0.28465617 -0.07307387
000260 24 f1 5d bb da f6 b7 3b ab 1a 23 3c ac 36 3f 3b
       -0.0033865655 0.005614144 0.009955089 0.0029176874
000270 0b cf f2 3d c2 e2 fb 3b 19 bf 14 3d 02 fb 82 3c
       0.118558966 0.0076869437 0.036315057 0.01598883
000280 28 56 fa 3c f2 73 9c 3c ab 4f 2b 3e 39 21 09 bf
       0.03055866 0.019098256 0.1672961 -0.5356632
000290 78 da d6 bc f2 67 ae bc 94 0d 15 be 47 7a 82 bd
       -0.02622722 -0.0212898 -0.14555961 -0.06370979
0002a0 6c 9a 33 bb ec 3d ad 3b 65 cd 1b bc fd dd d0 bc
       -0.0027405275 0.0052869227 -0.009509419 -0.025496477
0002b0 d8 23 b2 3d e9 4a 21 3e 5b da 15 be db 15 a8 3d
       0.08698243 0.15751232 -0.14634077 0.082072936
0002c0 f4 c8 1d bd 92 bc c8 3c a2 4e db 3d e8 18 eb be
       -0.038521722 0.02450398 0.107083574 -0.4591744
0002d0 11 9b d7 3c 74 12 db 3c 81 0d 67 3d c0 04 a4 3e
       0.026319059 0.026742198 0.056409363 0.32034874
0002e0 63 94 13 3c 73 fe 88 3a 94 30 56 3e ae a3 ad bd
       0.009007546 0.0010451808 0.20916969 -0.08478485
0002f0 68 f8 7d 3c ef 9d 9e bc ff 8e 9c 3d bf b0 81 3e
       0.015501119 -0.019362418 0.07644462 0.2533016
000300 a6 da 54 3c fa e8 c1 bb fb 11 8b be e4 c0 85 3c
       0.012991583 -0.0059176655 -0.27162156 0.016327329
000310 10 6e ce 3d 56 9f 8e bd 8e 6c d1 3b f9 0c 04 be
       0.100795865 -0.06963985 0.0063911146 -0.12895574
000320 27 47 a0 bd 6a 82 0e 3d 4f f5 82 3c 19 4e 1e 3f
       -0.07826071 0.03479234 0.015986113 0.6183792
000330 c2 9f 3f bd c9 7d 38 3b ff 49 01 be 56 bc 8d bd
       -0.046783216 0.0028151146 -0.12625884 -0.06920688
000340 b8 52 f1 b8 08 40 77 3c ba 10 41 3c 30 b3 a2 bd
       -0.00011507183 0.01509095 0.011783773 -0.079443336
000350 90 fe 1f be ba 13 84 bd 41 fc f2 bd d0 ef 2c 3e
       -0.15624452 -0.06449075 -0.1186452 0.16888356
000360 bb 64 53 3c 48 dd 35 3c c9 f8 5a bd c0 56 bd 3b
       0.012902434 0.011100121 -0.053459916 0.0057781637
000370 12 fa 03 3c 9c 94 9a 3d ae 3d ef bc 53 b1 d5 3e
       0.008055227 0.07547876 -0.029204216 0.4173685
000380 41 dc be bb be 76 94 3b 1e 4d 1a 3d 5e be f0 bc
       -0.005824596 0.0045307567 0.0376712 -0.02938765
000390 d5 7d 3f 3d d0 d6 83 bd 20 f8 66 be 4f f1 e3 3e
       0.046750862 -0.064374566 -0.2255559 0.4452004
0003a0 1e 6a 33 3c 5a 42 97 3d b1 f9 70 3d d2 53 3e 3d
       0.010950593 0.073857024 0.058831874 0.046466656
0003b0 09 75 49 bc 75 3d 4c bd 76 5c e3 bd 0a fc 0c 3e
       -0.01229597 -0.049863297 -0.1110162 0.1376802
0003c0 3e ad 22 bc ff 0b 42 3a 90 1d 69 3d e7 90 9a 3d
       -0.0099289995 0.00074023 0.05691296 0.07547169
0003d0 04 3a ff 3c b8 31 a3 3d fe b1 99 3e c2 34 86 3e
       0.031155594 0.079684675 0.3001861 0.26212126
0003e0 38 75 6f bb ba 8c 6a bb 15 a6 9d bc 74 d2 00 bd
       -0.0036538374 -0.0035789446 -0.019244233 -0.031450704
0003f0 be ce 06 bc e6 90 9a 3c fa a0 c1 bd 51 14 10 bf
       -0.008228002 0.018867921 -0.09454532 -0.56281

embed.bias f4 [32]
000000 d3 b5 9c be 07 4a 80 bf 59 a9 b2 be 68 47 b3 3d
       -0.3060747 -1.0022591 -0.34894827 0.08753854
000010 41 86 0f be db 37 0b bf a9 3b 17 3f ca 0d c0 3d
       -0.14016058 -0.54382104 0.5907541 0.0937763
000020 c3 e4 4b 3f 75 a2 28 3f a8 63 ba 3d 79 86 04 3e
       0.7964594 0.6587289 0.09101039 0.12941922
000030 be da e7 be a5 95 8b be 95 62 18 3f 67 cd 36 bf
       -0.45284075 -0.27262607 0.59525424 -0.7140717
000040 22 22 9b 3e 45 d6 f9 3d 1c 9e 1c 3f 49 ba 87 bd
       0.3029948 0.12199072 0.61178756 -0.06627328
000050 c7 7a f0 be 1e 85 83 3e 76 98 3b 3f 73 8b 98 be
       -0.46968672 0.25687498 0.7327951 -0.2979389
000060 81 75 ab be 16 58 db be cb af 64 3e 97 7d 8c bf
       -0.33488086 -0.42840642 0.22332685 -1.0975827
000070 88 75 32 be f2 dc 0d bf aa 93 e9 be 09 25 7e 3f
       -0.17427647 -0.5541526 -0.4562047 0.9927526

gnn.att_src f4 [1, 1, 32]
000000 a1 80 58 3e 24 91 3a 3d 7e 03 3c 3d df ac 9c bd
       0.21142818 0.045548573 0.045901768 -0.0765016
000010 25 03 1d be ac a1 de bd 65 de 80 3d 63 e9 0f 3e
       -0.15333231 -0.1087068 0.062924184 0.14053874
000020 47 ff 14 3e f6 fb 3d 3e ea b5 0f bd e6 79 f7 3d
       0.14550506 0.18553147 -0.035085596 0.12083797
000030 59 5f 57 bd 24 d9 af be b9 df 52 3e 5a 93 04 be
       -0.052581165 -0.34345353 0.20593156 -0.12946835
000040 39 46 dd bc d9 55 e0 3e f4 09 03 be 15 8c 24 3c
       -0.027011024 0.43815497 -0.12796766 0.010043164
000050 a5 f2 06 3c fa fd e1 3d 2f 2a cc be e8 22 0b be
       0.008236562 0.1103477 -0.39875934 -0.13587534
000060 5f f7 19 3c e3 ff 3e 3e a2 2d 5c 3e 0e 48 da bc
       0.009397357 0.186523 0.21501783 -0.026645686
000070 ea 01 08 3d a9 33 5a bc 41 c7 13 be 1b 0f f7 3d
       0.03320495 -0.013317981 -0.14431478 0.12063428

gnn.att_dst f4 [1, 1, 32]
000000 70 f7 b0 3c 71 65 9e 3e 4b c0 ac bd 34 ae 49 3e
       0.021602362 0.3093677 -0.084351145 0.1969536
000010 96 63 67 be a3 92 05 be a3 09 af 3d 12 69 1f 3e
       -0.22596583 -0.13044219 0.0854676 0.15567425
000020 a0 bc e1 bd fe 71 bb bd 43 b8 6a 3e b8 8c 98 ba
       -0.110223055 -0.09152602 0.22921853 -0.0011638617
000030 99 5a 53 be e7 fc d5 bd 5f 80 bb 3e 73 4f 94 be
       -0.20640029 -0.10448628 0.36621377 -0.28966865
000040 e1 43 01 be d0 15 66 3e aa f5 ac 3d d2 9d 44 3d
       -0.1262355 0.22469258 0.08445294 0.04800207
000050 29 71 a8 39 f6 6b 5c 3e e8 80 65 bf cf 07 06 be
       0.00032127768 0.21525559 -0.8964982 -0.13088916
000060 07 82 60 be cd 90 46 3e b5 f3 89 3d 0a 61 d2 3d
       -0.21924601 0.19391175 0.067359366 0.10272415
000070 1e c1 0f 3e db 1e 12 be 39 89 ef bb b3 bb d5 be
       0.14038512 -0.14269583 -0.0073100594 -0.41744766

gnn.bias f4 [32]
000000 29 d3 53 bd 62 37 da bf 04 03 1b 40 da bd a9 bd
       -0.05171505 -1.7048151 2.422059 -0.082881644
000010 04 0e 97 3f ba 7b 91 bf 5f 04 78 be 42 69 b4 be
       1.1801152 -1.1365883 -0.24220417 -0.35236555
000020 80 80 96 3f 3b d2 aa 3f cf 54 01 40 c4 5b f5 bf
       1.1757965 1.3345407 2.0208013 -1.916863
000030 07 29 4d bf 0e 67 71 3e f9 f8 74 bf 86 69 2e 3f
       -0.8014073 0.23574468 -0.956924 0.68129766
000040 e2 26 92 3f 3d dd 1a c0 b5 b6 c7 bf cb 15 bf 3f
       1.1418116 -2.4197533 -1.5602633 1.4928526
000050 f7 2f 37 bf 7b 63 fd 3f 5e c7 a6 3f c1 5b ca 3e
       -0.71557564 1.9795984 1.3029592 0.39523128
000060 81 0a 50 bf 97 49 0b 40 73 01 94 3e ea e6 83 3f
       -0.8126603 2.1763666 0.28907356 1.0304844
000070 44 fa c1 3f ed 5b 1b 3f e6 b5 0f 3f 67 28 d5 3f
       1.51545 0.6068714 0.5613693 1.6652955

gnn.lin.weight f4 [32, 32]
000000 48 e2 8c 3d 4a bb bc bc e7 0f 79 3d d6 5d 13 bd
       0.06879097 -0.023038525 0.06080618 -0.03597816
000010 d1 45 23 3d 5b c2 07 3c 73 87 cc bb 6b 5e 6d bc
       0.039861504 0.008286084 -0.0062417327 -0.014487843
000020 b1 61 21 3b 0e d3 da bc 5a bb c4 3c 3c a2 0a bc
       0.002462488 -0.026711967 0.024015117 -0.008461531
000030 32 a9 c2 bc 3c 0b 91 3b 4b c8 d3 bb 53 dc 0d 3d
       -0.02376232 0.004426388 -0.0064630858 0.034633946
000040 c9 70 81 bd ea f8 db 3c 6b 55 21 3b db e5 c9 3c
       -0.0632034 0.02685209 0.0024617563 0.024645736
000050 5e cb 3c 3d c7 ca 8b bc fc 26 04 3d 5c aa 8c 3d
       0.046092384 -0.017064465 0.03226374 0.06868431
000060 ce 1f 86 3d 44 b2 8f 3a 83 9c 21 ba 1b 03 75 bd
       0.06549035 0.0010963161 -0.00061649847 -0.059817415
000070 48 34 0b bd 23 af 0d bd ba 7e 9a 3b 6b f8 90 3b
       -0.033985406 -0.03459085 0.004714814 0.004424145
000080 41 de 23 3e 05 71 5c 3d dc 5b 9a bc 67 ef ea bc
       0.16002752 0.05381872 -0.01884263 -0.028678609
000090 ca 38 eb bd b3 54 60 3d e4 30 02 3d 32 a8 5e 3c
       -0.11485441 0.054768275 0.031784907 0.013589906
0000a0 db c7 03 3d f3 41 f1 bc fc 7b 43 bc 0e 5c 02 3c
       0.03217302 -0.029450392 -0.011931416 0.007956518
0000b0 72 21 50 3c 91 12 00 bd 09 75 96 bc b4 ef a8 bc
       0.0127032865 -0.031267706 -0.018366354 -0.020622112
0000c0 1d c4 7b bd a8 e2 51 3c 89 fd ef bd 9b c1 3f 3d
       -0.061466325 0.012810387 -0.1171828 0.046815496
0000d0 a7 d7 d2 3d 81 f9 24 bd 77 bf 3d bd b8 88 8a bd
       0.10295039 -0.040277008 -0.046325173 -0.06764358
0000e0 5b 47 27 3e a9 1f e5 b9 3b 56 23 3e b2 e5 d1 3d
       0.16335814 -0.00043701872 0.15950863 0.10248889
0000f0 35 cb 10 be 98 f7 43 be 3a f7 af 3d 4c cf d9 bd
       -0.14140017 -0.19137418 0.085920766 -0.10635242
000100 51 41 70 bc 35 fc d6 bd be 0e 0f bd eb a4 52 3e
       -0.01466401 -0.104973234 -0.03492617 0.20570724
000110 22 09 2a 3c 7d 5e ae 3c ac 32 bc 3c 10 a4 c6 3c
       0.010378154 0.02128529 0.022973381 0.024248153
000120 5a ae 00 be d2 66 df bd a4 eb 09 bd cc 39 5d bd
       -0.1256651 -0.10908283 -0.03367199 -0.054010198
000130 c5 3f b6 bc 7e ad 66 3c ac b5 8e 3d d0 c8 f6 3d
       -0.022247205 0.01407945 0.06968245 0.12050021
000140 58 8c 25 3c 62 40 d0 3d ce f0 34 bd ab 69 52 3c
       0.010104261 0.1016853 -0.04417496 0.012842576
000150 83 5f 8c bd 49 0d e8 bc a2 4f 3e bd 89 1a 4f be
       -0.06854155 -0.028326647 -0.046462663 -0.20224966
000160 79 f9 70 be e5 54 9c bd 50 48 a2 bd 60 10 f4 3d
       -0.23532666 -0.0763338 -0.07923949 0.11917186
000170 7e 5f ff 3c 58 cb 0f be 44 58 54 3d 55 fe 4d bd
       0.031173464 -0.14042413 0.05184199 -0.050291378
000180 5c 03 37 bd ad 38 93 3c 3e d8 51 3c 5c 69 ff bc
       -0.044680938 0.017971361 0.012807904 -0.031178169
000190 fb d4 19 3e 8c 90 af 3c 82 ad a0 3d 38 bb 00 3d
       0.15022652 0.02143123 0.07845594 0.031428546
0001a0 03 72 d5 3c 0a f3 a4 3d 67 79 b5 bd bb 99 e3 bb
       0.026055342 0.080541685 -0.08861046 -0.0069458163
0001b0 f4 52 97 3c a9 7b db 3c 63 4a ad bd ed 34 2c be
       0.018472172 0.026792364 -0.08461454 -0.16817065
0001c0 89 c1 c6 3d 3d c6 f4 bd f9 06 8f 3c 9d e6 2b 3d
       0.09704883 -0.119518735 0.01745938 0.041967977
0001d0 4c f1 fb 3c cc 92 12 3d 1a ff ee 3d fc a9 85 3e
       0.030754708 0.035784528 0.116697505 0.2610625
0001e0 3d 9c 99 3d 14 b8 0f 3d 53 65 5f bd f1 57 89 bc
       0.07500503 0.03508766 -0.05453999 -0.016765567
0001f0 31 79 b9 bd 70 eb 37 3e 66 22 6b bd 93 e7 0b 3e
       -0.090563186 0.17960906 -0.05740585 0.13662557
000200 0f 7d 0a be f5 fc 11 3d 2c fb 53 3d 1f 63 87 be
       -0.13524269 0.03564163 0.051753208 -0.2644281
000210 cb 8e 18 be 0d 9d 3d 3c bb 91 9d 3d 36 65 ed 3d
       -0.14898221 0.011573088 0.076938115 0.1159157
000220 cf 1a 08 be 2f 06 81 bd a0 38 61 bc c9 51 12 be
       -0.13291477 -0.063000076 -0.013746411 -0.14289011
000230 57 9e 31 3e 11 1b 15 3e 89 12 92 3c 66 2e 5e be
       0.17345558 0.14561106 0.017831104 -0.21697387
000240 59 f6 eb 3d ec 64 5a 3d 1a d9 11 3d 81 4d a0 3c
       0.115215965 0.053318903 0.035607435 0.019568207
000250 da 39 78 be ba 51 8b 3d 8a 86 94 bd cb 51 4c bd
       -0.24240819 0.068026975 -0.07252224 -0.04988269
000260 3b 5d 99 bd ee 9b 27 be d7 8b d7 3d 2c 02 2f bc
       -0.074884854 -0.16368076 0.10524719 -0.01068167
000270 5c 19 de 3d a6 ef a3 3e d2 48 53 bd 86 32 0d 3d
       0.10844681 0.32018775 -0.05158312 0.03447201
000280 df f8 d2 bd 4b 1f 16 3e 1c 75 2f be 48 d7 6c 3e
       -0.10301375 0.14660375 -0.17134517 0.23128998
000290 67 5a c1 bd ba 84 3e be a0 98 66 3b f7 99 2c be
       -0.09441071 -0.18605319 0.0035186186 -0.16855608
0002a0 c2 f3 b7 bd 51 1b 48 bd 80 cd 44 bd 9c 16 15 bc
       -0.0898204 -0.048854176 -0.048047543 -0.009099629
0002b0 f3 59 b8 3d f2 9e ac bb 7b 3e 0b 3e 13 e5 35 3e
       0.090015315 -0.005267971 0.13598053 0.17763166
0002c0 8f fb 64 be e5 a1 8b 3e 4e 51 0c be c9 f3 9e bd
       -0.22361587 0.27271953 -0.1370289 -0.07761342
0002d0 ab f1 04 be 89 fc 43 3c a8 03 5a bd 2e 12 ab be
       -0.12982814 0.011962065 -0.053226143 -0.33412308
0002e0 b7 59 b4 be a8 6e 55 3e 7c 6d f8 3c ce a5 6f 3e
       -0.35224697 0.20842993 0.030325644 0.23403093
0002f0 0a 50 53 3e 77 c6 18 be 8e a9 9c 3d 70 a8 0b bd
       0.20636001 -0.14919458 0.076495275 -0.03409618
000300 96 56 39 3e 10 57 a7 be e0 5f 9d 3d 2d 41 19 bd
       0.18099436 -0.3268361 0.07684302 -0.037415672
000310 db 11 40 3e 4e 24 99 3d 5e 43 37 be 1c cc ae 3d
       0.18756811 0.07477628 -0.17896792 0.085350245
000320 a9 29 a8 3d 79 43 0f 3d cb f2 98 bc e5 78 4f 3c
       0.08211071 0.034976456 -0.01867046 0.012663101
000330 9f be b4 bc 3f 0d 63 3d af d9 08 3e e7 e8 0a be
       -0.022063551 0.055432554 0.1336429 -0.13565408
000340 44 90 48 3e d2 b8 9b bc 14 b2 86 3d 0a 11 1f 3d
       0.19586283 -0.019009028 0.065769345 0.03883461
000350 13 4f 0e bd ad b1 9d 3c aa be 62 3e 35 35 48 3e
       -0.03474338 0.019249761 0.22143045 0.19551547
000360 bc 0a 23 3e 4a c0 72 be 2f 74 f7 3c b6 bf 0f be
       0.15922064 -0.23706165 0.030206768 -0.14037976
000370 30 8c 76 bd c8 06 e6 3d f6 18 38 bd 31 d6 aa 3d
       -0.060192287 0.11231762 -0.04494568 0.08341635
000380 97 89 5b 3d 52 97 a5 bc d6 43 a2 bc 91 35 34 be
       0.053598013 -0.020213757 -0.019807737 -0.17598559
000390 e3 c4 7e bd 25 21 d3 3c c7 98 8b 3d de a7 2a 3d
       -0.062199485 0.02577264 0.06816249 0.041663997
0003a0 26 be d2 3d ed 47 91 bc 70 c4 85 3d a5 1a d7 bc
       0.10290174 -0.017734492 0.06531608 -0.026257822
0003b0 ea d1 61 bd 90 50 56 bd 4d 7c 0a bd 33 b5 6b 3c
       -0.05513183 -0.052322924 -0.03380995 0.014386463
0003c0 fd 30 86 3d 96 97 93 bc 86 a4 1b bb d2 e6 81 bc
       0.065523125 -0.018016618 -0.0023749187 -0.015857134
0003d0 3b 60 a8 3d 65 cb 75 bc 08 92 6e bd 27 ce 1a bd
       0.082214795 -0.015002106 -0.058244735 -0.03779426
0003e0 7f 93 cf 3d 6e db c4 3a 8d 99 b3 3d 99 d1 32 bd
       0.101355545 0.0015019008 0.08769522 -0.04365692
0003f0 b4 d3 12 bd b4 d1 b0 bd 96 46 d0 3c 16 0f a2 bd
       -0.035846427 -0.08633748 0.025424283 -0.07913034

gru_encoder.weight_ih_l0 f4 [96, 32]
000000 8c 17 81 3e 6a 75 68 3e c7 99 99 3d bc 2c 3e be
       0.25213277 0.2270104 0.07500034 -0.18571752
000010 9e c1 e8 3e 56 b2 d7 3d 0a cb 53 bc ba f5 75 bd
       0.45460218 0.10532062 -0.012926826 -0.060048796
000020 a3 64 c5 bc 7b 0a cf 3c 34 59 a4 bc 94 87 d3 bb
       -0.024095839 0.025273552 -0.020062067 -0.006455371
000030 b6 de 83 bc a6 c5 40 be 9f 1f 89 3b 21 2a c0 bd
       -0.016097408 -0.18825397 0.0041846777 -0.093830355
000040 3c 69 7e 3d bd 4f 2e be 2f 79 7b 3d 8e b4 26 be
       0.062112078 -0.17022605 0.061394867 -0.16279814
000050 2b 05 cc bd 4c 82 ac bd 73 a8 46 be bb 89 f2 3d
       -0.09961923 -0.0842329 -0.19400196 0.11842676
000060 96 c7 52 bd 99 a1 ab be 05 a3 bb bc 25 30 ec bd
       -0.05145987 -0.33521727 -0.022904882 -0.1153262
000070 e9 8d 70 bd 7c 3c f7 3e 2c 21 8b bd 60 99 80 3d
       -0.058729086 0.48288333 -0.067934364 0.06279254
000080 7b 5b a9 bd 75 bf 11 be 8b d5 8e bd f7 49 db 3d
       -0.08269402 -0.14233191 -0.06974324 0.10707467
000090 17 1f ce bd bd c7 70 be c1 50 35 3e 94 60 39 be
       -0.10064524 -0.23513694 0.17706586 -0.18103248
0000a0 d7 6b 4a 3e f9 19 e4 3c 24 3b e6 3d f5 0c 16 bd
       0.197677 0.027844416 0.11241749 -0.03663345
0000b0 72 78 30 be 59 62 53 3b ef 1b a5 3d fa 21 05 be
       -0.17233446 0.0032254665 0.080619685 -0.13001242
0000c0 e7 dd c5 3d 2a 6a 35 be 51 d6 40 3d c8 14 39 3d
       0.09661465 -0.1771628 0.047079388 0.045185834
0000d0 4a 46 b1 bd 3b 93 2a be f7 ac 11 3e fe 9f 49 bc
       -0.08655985 -0.16657726 0.14226137 -0.0123062115
0000e0 36 48 ef bd 0b 9a 61 be 1f df ba 3d c0 bc 2d be
       -0.11683695 -0.22031419 0.09124588 -0.16966534
0000f0 2e 4e 91 3d 2e 2b c4 bb 79 46 e0 bd cb 73 7d 3d
       0.0709499 -0.0059865927 -0.109509416 0.061878007
000100 34 2e 14 3e 36 44 c2 bd c6 77 25 3e 31 fa 49 3c
       0.1447075 -0.094856665 0.16158971 0.012327717
000110 31 6f 3c be 62 d2 f6 bd 29 52 86 bd 49 7c f0 bd
       -0.18401791 -0.12051846 -0.065586396 -0.117424555
000120 8d ea 36 3e 1c 77 4d be 0e df b8 3a c6 b4 eb bd
       0.17862912 -0.20064968 0.0014104561 -0.11509089
000130 9f 5e ae bd ad d7 f0 3d d4 47 8b be 9a da 4c 3c
       -0.08514141 0.11759887 -0.27203238 0.012503291
000140 a0 8c 47 bd 38 37 92 be 93 c4 63 be a1 ab ce 3d
       -0.048718095 -0.28557754 -0.22242956 0.10091329
000150 2b 15 f1 3c fd 63 5d bd 3c 0c 8a 3e 29 26 4c 3e
       0.029429039 -0.054050434 0.2696246 0.19936432
000160 48 17 16 3e aa 48 3c bd b0 af bf 3d c7 ec cf 3d
       0.14657319 -0.045967735 0.093596816 0.101525836
000170 2a ff 4d 3e 52 ff 58 3e 98 ac 43 3e a7 a6 65 be
       0.20116869 0.21191147 0.19108808 -0.22426854
000180 46 fc dc 3e 39 41 44 be a1 f3 c7 bb 4a b6 af bc
       0.4316122 -0.19165505 -0.006102041 -0.021449227
000190 24 c7 a8 3c 89 8b 58 3e 30 36 c4 be 90 2e 30 bd
       0.02060277 0.21146978 -0.38322592 -0.043013155
0001a0 c7 77 1d bd a4 8d aa be 4b 19 ee 3c 33 fe 49 3e
       -0.038444307 -0.33311188 0.029064795 0.19725876
0001b0 77 16 a0 3d aa a4 96 3d 4b 78 d1 be 9e 75 54 3d
       0.07816785 0.07355626 -0.4091209 0.05186998
0001c0 5f bd 43 3b 0f 8b 67 bc 68 4c 8c 3b 77 6f c4 3d
       0.0029867513 -0.014132275 0.0042815693 0.09591573
0001d0 37 2f 8d be fd 6d 60 bd 44 b8 78 3d cc c0 66 bd
       -0.27575085 -0.054792393 0.060722604 -0.05633621
0001e0 a1 5c 94 3e 67 49 8c 3e 56 5c 8a 3d 7e d3 36 bd
       0.2897692 0.27399752 0.06755893 -0.04463529
0001f0 9e 42 f4 3d ec 89 94 3e b7 64 67 3d 42 d0 b0 ba
       0.11926769 0.29011476 0.056492534 -0.00134898
000200 5f 49 06 be af 31 8f 3e 31 61 0e bf 76 46 c8 3e
       -0.13113926 0.27967593 -0.5561705 0.39116257
000210 b6 56 85 bc 31 74 d3 3e 23 21 c5 be f3 ca 00 bd
       -0.016276699 0.41299585 -0.38501844 -0.031443547
000220 3b 87 bc be 59 b1 83 be 9f 6b 65 bd 63 3f 92 3e
       -0.36821923 -0.25721243 -0.05601084 0.28563985
000230 39 4c 38 3e 5f e1 1d be 63 22 23 3e 92 3b 4a 3e
       0.17997827 -0.15418003 0.15931086 0.19749287
000240 65 43 d4 3e 7e 3b 59 3f 09 77 2a 3d 2d 3a 82 bd
       0.41457668 0.848564 0.041617427 -0.063587524
000250 dc 17 23 3e 72 39 a8 bd 8f b9 55 be 65 89 93 be
       0.1592707 -0.08214082 -0.20871566 -0.2881576
000260 17 ca bc 3d 52 d5 86 3e 0a ca 3f be 56 eb 5e be
       0.09218233 0.26334625 -0.18729416 -0.21769461
000270 04 72 8d be 4e 08 ae be e1 69 87 be 82 e4 1e 3f
       -0.2762605 -0.3399071 -0.26447967 0.62067425
000280 f7 b5 64 3e e8 8c 94 bc ce 09 ff bd 8b 9b f3 bd
       0.22335039 -0.018133596 -0.12453042 -0.11894902
000290 94 b7 c1 3e 0e 3b bd bc 09 e9 e4 be 33 99 3b bb
       0.37835371 -0.023099449 -0.44709042 -0.002862525
0002a0 a1 2a de 3c 0c c4 45 3e 85 84 4a 3d b4 b4 24 3e
       0.027119936 0.19313067 0.049442787 0.16084558
0002b0 28 a4 47 3c 22 cc c5 bd 40 79 68 be 65 a9 b8 3c
       0.012185134 -0.09658076 -0.22702503 0.022541711
0002c0 43 f3 81 3e db 93 2f be 1a 2b aa bd db ea ce bd
       0.25380906 -0.17146246 -0.08309002 -0.10103389
0002d0 04 59 a9 be c3 76 2a bd 9e 8e e2 bd 18 f8 65 bd
       -0.33075726 -0.041617166 -0.11062358 -0.056144804
0002e0 95 4d 81 3d 3e d2 58 3e 36 7c 46 bd 7b 58 27 3d
       0.06313626 0.21173951 -0.0484583 0.040855866
0002f0 b4 9e 21 3d 10 96 06 be 00 a4 ca 3d 14 98 aa bd
       0.03945799 -0.13143182 0.09894562 -0.08329788
000300 6e 9a 6f be a9 39 2c 3e 56 94 18 bd 72 35 c0 3c
       -0.23398754 0.1681887 -0.03725084 0.023462985
000310 6e f7 23 bd d0 dd 06 bd b1 4f ec 3d 36 2e c6 bd
       -0.04003089 -0.03292638 0.115386374 -0.09676783
000320 16 8c 81 3e c3 61 91 3d c0 d7 20 3d b1 e8 18 3d
       0.2530219 0.07098725 0.039268255 0.037331287
000330 00 f8 6a 3d 12 d7 05 bd 43 fc 8a 3e f0 a9 9c bd
       0.057365417 -0.03267581 0.27145585 -0.076496005
000340 33 ab bd 3b 73 ef 66 bd be 2a 93 bd 6c 59 02 bd
       0.005788231 -0.0563807 -0.07185887 -0.03182356
000350 f5 ef bd 3d a0 97 92 bd 8f b2 68 3e 49 6d d6 3d
       0.09274284 -0.071578264 0.22724365 0.10470063
000360 84 77 3a be 53 f8 85 be 87 dc 1d 3e 3f de d0 bd
       -0.18209654 -0.2616602 0.15416156 -0.1019864
000370 d9 e2 6c 3d 3c d9 5e be 24 a8 06 bd 27 1d d1 bc
       0.057833526 -0.21762556 -0.032875195 -0.025526596
000380 84 4f 8c 3e cf 82 35 bc 0c ef 1d 39 99 f7 19 be
       0.27404416 -0.0110785505 0.00015061739 -0.15035857
000390 1b 9e 8b 3e 23 e4 c9 3a 4d ec 66 be 3d 4f ed 3d
       0.27269062 0.0015403073 -0.22551079 0.11587379
0003a0 e5 fd 16 3e 46 9b 93 bd fe 06 82 3d 46 13 be 3d
       0.1474529 -0.072073504 0.0634899 0.0928102
0003b0 8e ad 0b bd 11 0a 0d be ac a3 b4 be a0 b8 99 bd
       -0.03410106 -0.13773371 -0.35281122 -0.075059175
0003c0 e7 a8 a0 3e 5d b5 73 bd 62 bf f8 3d bb 55 a3 3c
       0.31378862 -0.059499133 0.121458784 0.01993834
0003d0 60 ac 09 be 99 53 d1 3d a3 11 95 3c d4 9a 0a 3e
       -0.13444662 0.10221023 0.018196886 0.13535625
0003e0 65 9e 4f bd 6d 8a 59 be 7d de 5a 3d 69 22 07 bc
       -0.050688166 -0.21244211 0.053434838 -0.00824795
0003f0 2e fe 39 3d ee 37 63 3e 63 7c bf ba 0f 7a 38 3d
       0.04540842 0.22189304 -0.0014609214 0.04503828

gru_encoder.weight_hh_l0 f4 [96, 32]
000000 55 1d 8e be 0f c1 75 bd 52 16 02 bf 6c ed 61 3f
       -0.27756754 -0.05999857 -0.5081531 0.882529
000010 00 2f d4 3d f0 f6 66 3d 10 6b 19 be 44 70 06 3d
       0.10360527 0.05638784 -0.14982247 0.03282191
000020 3c 48 20 bd ef 9b 63 be 2a 1c 5e be 60 14 7a be
       -0.039131388 -0.22227453 -0.21690431 -0.24421835
000030 f8 f9 c5 3e 93 24 98 be b0 85 12 be cb 4a 96 3d
       0.38667274 -0.29715404 -0.1430881 0.073384844
000040 ad f9 7a 3d bb 25 6a be 4e fe 08 3f ba 14 59 3e
       0.061273266 -0.22865956 0.5351304 0.21199313
000050 c0 7f 37 3e 90 0d ed bd 6c 7a 40 3e cf c1 dd be
       0.17919827 -0.115748525 0.187967 -0.43311927
000060 16 94 20 be 94 9d 29 3d b5 90 28 3e 94 17 4c bd
       -0.1568149 0.041410044 0.16461451 -0.049827173
000070 11 bc dc 3c c3 33 41 bc 76 3d 02 3f a2 34 61 be
       0.026945146 -0.011792126 0.5087503 -0.21992734
000080 3c 6a 27 3e 4f ce a6 be aa 00 08 be ac a2 0b 3c
       0.16349119 -0.32579276 -0.13281503 0.008522671
000090 cb 2f a3 3c de a3 bc 3d 7b 75 34 3d 6a 8a ad 3d
       0.01992025 0.09210943 0.04405735 0.08473666
0000a0 a5 90 85 3c 23 38 45 3e b5 5e 58 3d 3a ae d7 bd
       0.016304323 0.19259696 0.052824695 -0.10531278
0000b0 cd 99 14 bd 89 f7 5a 3e fd 18 cb bc 7b 9c aa 3d
       -0.03627949 0.2138349 -0.024792189 0.083306275
0000c0 b2 3e 4e bd f4 5b 41 3d 24 6c 7d bd 18 1f 8c bd
       -0.05035276 0.047206834 -0.06187071 -0.06841868
0000d0 d8 f3 ab 3b 1e 40 51 3d 2d 1b 85 3e c0 08 83 3d
       0.0052475743 0.051086538 0.25997296 0.06398153
0000e0 85 09 1a 3e 84 00 4f 3d f3 ab 83 bc f0 9b 4f 3d
       0.15042694 0.0505376 -0.016073203 0.050685823
0000f0 83 4e 19 3d f2 e6 b3 3d 43 ee ad bd 59 0d 42 3c
       0.03742839 0.08784284 -0.084927104 0.011844003
000100 41 14 55 3e fc cc 5c bd 4e 4b 5b be ad 0c 84 bd
       0.20808508 -0.053906426 -0.21415445 -0.0644773
000110 1f d0 4d be ba a0 37 be f0 23 4c be f2 4a 06 be
       -0.20098923 -0.17932406 -0.19935584 -0.13114527
000120 12 d5 77 be 3d 84 aa 3e 5d fd d2 3d fe c5 c4 bc
       -0.24202374 0.33304015 0.103022315 -0.024020191
000130 0d f0 ab bf 98 5b b9 3d 0a bf 5c bd 63 70 64 3e
       -1.3432633 0.09050673 -0.053893127 0.22308497
000140 77 c0 de 3d 86 0f e0 bd f7 7a 32 3f bb 0d 7b 3e
       0.108765535 -0.10940461 0.6971888 0.24516957
000150 11 85 3c bd de 21 6e 3d 24 d1 41 3e f9 c1 7d bd
       -0.04602534 0.058137767 0.18927437 -0.061952565
000160 1c 71 bc bc d2 f9 c4 3d 48 79 e9 bd 80 6f 85 3d
       -0.023003154 0.09617962 -0.11400086 0.065154076
000170 da fa de 3d bc ff 2b 3e ef 49 07 be 5d 27 31 bd
       0.1088769 0.16796774 -0.13211797 -0.04325043
000180 bb 2e 9a 3d dd c5 21 be d6 74 61 bd c4 02 cd 3f
       0.075284444 -0.15798135 -0.055043064 1.6016469
000190 43 bc ad bd 74 10 e9 3d 3a 3b d9 bd 02 3b 08 3e
       -0.08483174 0.11380091 -0.10607 0.1330376
0001a0 e8 72 d0 be 08 e1 0c 3f 78 08 78 3d 2e 63 20 be
       -0.40712667 0.5503087 0.06055495 -0.15662834
0001b0 ca 2c 38 3e e4 d6 d1 3d 77 f3 ec bb 8d d0 57 3c
       0.17985836 0.10246065 -0.0072311717 0.013172281
0001c0 a3 27 01 be 4f 7e a7 bd 36 12 6c 3e e5 f4 01 be
       -0.12612776 -0.08178388 0.23053822 -0.12691076
0001d0 5c 91 2e 3e e8 63 a4 bd 15 2e 30 be 15 60 f9 be
       0.17047638 -0.08026868 -0.17205079 -0.48706117
0001e0 d2 c3 ab bd 6e d9 87 3e ff 1a 98 be 0e 0f 55 3e
       -0.08386959 0.26533073 -0.29708096 0.20806524
0001f0 2a b8 40 bd 97 f5 c5 3e 62 d9 ce bd a7 9e 84 be
       -0.047050633 0.38663933 -0.10100056 -0.25902292
000200 de 1d 19 be fb cf 80 3d cf 23 17 3d 9a f8 9a be
       -0.149528 0.06289669 0.036899384 -0.30267793
000210 dc 8e fa be 9f e9 33 bf 8c 8c ca 3c f8 24 d4 3d
       -0.48937118 -0.7027835 0.024725221 0.10358614
000220 8e 42 08 3e 45 1a 83 3c 94 04 c7 bc 40 74 61 bd
       0.13306639 0.016003737 -0.024294175 -0.055042505
000230 e7 22 44 3b 73 01 0a be 70 78 fe bd fd db 95 3d
       0.002992803 -0.13477115 -0.124253154 0.0731735
000240 00 68 fe bd e9 6c dd bd b8 d7 35 be 73 03 7e 3e
       -0.1242218 -0.108117886 -0.17758071 0.24806003
000250 37 b6 29 3e b8 49 50 be 49 7a 2c bb 57 de 72 be
       0.16573416 -0.20340621 -0.0026318005 -0.23717628
000260 ac 48 69 3d 5b ba 46 bd d3 3c 02 3f 41 4a 98 bc
       0.05695407 -0.048517566 0.5087406 -0.018590095
000270 71 92 34 3d 7a 52 7d 3c 01 c9 21 be 00 bd 89 be
       0.04408497 0.0154615585 -0.15799333 -0.26902008
000280 12 9e ff be be 3d 58 be 8c 18 98 be b0 fa 66 bd
       -0.49925286 -0.21117303 -0.29706228 -0.056391418
000290 71 14 06 3f c2 61 17 3f d6 34 a4 be cf 8d 17 bd
       0.5237494 0.5913354 -0.3207156 -0.037000474
0002a0 a4 0e 22 bf 22 ce ae 3d 10 a2 c8 3e ad 71 95 be
       -0.6330359 0.085354105 0.39186144 -0.2918829
0002b0 85 1c 43 3e c0 b2 a2 be 05 c8 22 3f 04 bf 29 3f
       0.19053848 -0.31777 0.63586456 0.6630709
0002c0 b3 df dd be 6b 31 fb 3d a3 43 4d bf cb 7d bd 3d
       -0.4333473 0.12265285 -0.8018133 0.09252509
0002d0 77 ab 39 3f b1 e6 d9 3e f2 45 f0 3e 95 74 2d bf
       0.7252726 0.42558816 0.46928364 -0.67756015
0002e0 57 33 0d 3e 26 27 8e 3e 22 bc 00 3f 1e bb 3c 3e
       0.13789116 0.27764243 0.5028707 0.18430755
0002f0 7c 3a a6 3e a2 aa f4 3e c4 94 c4 be 3d 34 88 3e
       0.32466495 0.47786433 -0.3839475 0.26602355
000300 e7 a4 3a bd 95 4f c2 3b f1 70 ad bd 52 3e be 3c
       -0.04556742 0.005929897 -0.084688075 0.023223076
000310 15 3a 76 bd 23 82 61 3e 92 4e cf 3d cd a7 aa bd
       -0.060113985 0.220223 0.10122408 -0.08332787
000320 6c a0 ff bd 24 e0 34 be 3a 1b 9b bc ff 24 a8 3c
       -0.1248177 -0.17663628 -0.018933881 0.020525454
000330 26 eb ef 3e d9 99 94 3d 6f 64 2c bd 5a 79 ae bc
       0.46859092 0.072559066 -0.04208797 -0.0212981
000340 cb 9f f6 3c 87 71 bd bd 38 69 a4 3b 18 72 62 bd
       0.030105492 -0.09250169 0.005017426 -0.05528459
000350 cb f5 0f be 12 46 e9 bd 0a c1 98 3d b3 fb 98 3c
       -0.14058606 -0.11390318 0.07458694 0.018674707
000360 67 0c 70 bc 8e d5 bd bd 35 7f 35 bd c0 3d 52 bd
       -0.014651394 -0.09269248 -0.044310767 -0.05132842
000370 30 7c ec bd 26 ad 91 bd f5 50 24 3e 88 f2 7f 3c
       -0.115471244 -0.071131036 0.16046508 0.015621789
000380 1c 5f 0c 3e 21 bb 29 be fb d7 c1 be b1 bc 88 be
       0.13708156 -0.1657529 -0.37860093 -0.2670646
000390 d4 be 13 3e c9 24 27 be fc 9d f5 bd f5 b2 27 3e
       0.14428264 -0.16322626 -0.11993024 0.1637686
0003a0 b9 ba bc 3d de 0b 82 bc 37 89 f4 3d 1f 8e 34 be
       0.09215302 -0.0158748 0.11940234 -0.1763234
0003b0 d9 72 18 3d 87 97 0b 3e 1c 38 f4 3d 62 5e 40 3e
       0.037218902 0.13632022 0.119247645 0.18786004
0003c0 0e f8 58 3e c9 4b 4b 3e b2 85 82 be 62 52 64 be
       0.21188375 0.19853128 -0.25492626 -0.22297052
0003d0 9f 47 cf bc bf 3f dc be f7 08 8c bd 95 59 a9 bc
       -0.025302706 -0.43017384 -0.068376474 -0.020672599
0003e0 31 ea 32 bd 19 02 22 3e 86 fb b6 3d 79 c6 04 3e
       -0.043680374 0.15821113 0.08934693 0.12966336
0003f0 1a e3 cf 3d 63 75 ce 3e b0 ed a7 be ab 0f 8d bd
       0.10150738 0.40323934 -0.3279853 -0.06887754

gru_encoder.bias_ih_l0 f4 [96]
000000 00 73 de bb ac d5 09 3e e8 2c 1c 3d f6 a5 25 3e
       -0.0067886114 0.13460416 0.038128763 0.1617659
000010 8f a8 bd 3b e9 9e 7f 3e 75 a4 30 3d 68 0f 21 3e
       0.005787916 0.24962963 0.04312559 0.15728533
000020 bc ad 0f 3e d1 dc bd 3d 6f 47 9a bc 23 ac 10 3d
       0.14031118 0.09270633 -0.01883289 0.035320412
000030 79 3d 3b 3e d5 fd 74 3d 5e f5 b6 3c be d5 9a 3d
       0.18285169 0.059812386 0.022333797 0.07560299
000040 7c 87 27 3e f1 57 17 3e f3 06 8a be 7d 11 39 3d
       0.16360277 0.1477964 -0.26958427 0.045182694
000050 e5 e8 b3 3d f8 2c f5 bc b3 43 3f 3e b8 2c d7 3c
       0.087846555 -0.02992867 0.18678169 0.02626644
000060 20 02 a5 3e bf a5 f7 3d 6c 7e 9d 3e c9 f7 e1 3d
       0.32228184 0.120921604 0.30760515 0.110335894
000070 4e 6b 80 bc 20 8e cc bc 2d 68 f1 3d 73 21 5d 3c
       -0.015676167 -0.024970114 0.11787448 0.013496744
000080 51 ca d0 be 3e 10 09 bf c3 85 bf 3e 35 10 08 bf
       -0.40779355 -0.5354041 0.3740674 -0.5314973
000090 47 41 80 be f1 24 81 3e dd 8c 12 bf ef 05 17 bb
       -0.25049803 0.25223497 -0.5724619 -0.0023044308
0000a0 8f 01 16 bd bb 69 fe be 17 ac c5 be 9b f5 f7 be
       -0.03662258 -0.4969004 -0.38607857 -0.4842957
0000b0 ae 69 0b bf 31 4e 04 3e 7a 60 c5 be a1 4e c9 bd
       -0.5445813 0.12920453 -0.38550168 -0.098294504
0000c0 14 93 5b bd 2b 9e 71 be 35 10 59 bd c9 83 5a 3e
       -0.05360706 -0.23595493 -0.05299397 0.21339335
0000d0 0a c0 00 3e 44 87 b1 bd 60 54 4d be 55 f6 a1 3e
       0.12573257 -0.08668378 -0.20051718 0.3163325
0000e0 77 08 c7 be bf df fd be 16 13 23 bf 4b 26 29 bf
       -0.38873646 -0.49584767 -0.63701 -0.66074055
0000f0 58 76 8a be 08 01 1c be a4 44 39 be ff c3 1a bc
       -0.27043414 -0.15234768 -0.1809259 -0.009446143
000100 57 f2 71 3e 3f 39 34 bf 2e 6b 5c be c0 99 b1 be
       0.23627602 -0.7039985 -0.21525261 -0.34687614
000110 7a 9f 6b 3e c4 b6 f2 3d 10 c2 0f bf 19 f1 49 3d
       0.23010054 0.11851266 -0.5615549 0.049302194
000120 af c7 24 bf fd 09 81 be 88 1d ec 3e 56 6e 67 bf
       -0.64367193 -0.25202933 0.4611628 -0.90402734
000130 c2 22 d7 3e d0 78 4b bd ea 20 83 be 41 e3 9e 3e
       0.42018706 -0.049675763 -0.2561105 0.31032756
000140 8e 74 84 3e dd fa 7f 3e 27 c4 ed 37 c7 95 b4 3e
       0.25870174 0.2499804 2.8343942e-05 0.3527052
000150 9e 9b 79 be fa 88 85 3e 4e 3a 01 3f 15 73 22 3f
       -0.2437577 0.26081067 0.5047959 0.6345685
000160 d7 11 cc 3e a2 a1 0c 3f f9 11 4d bf ac 9c 20 3f
       0.3985736 0.5493413 -0.8010555 0.6273906
000170 db b8 a8 3e dd 70 e3 bd 11 15 18 bf ce 91 30 3f
       0.32953534 -0.11105511 -0.59407145 0.6897248

gru_encoder.bias_hh_l0 f4 [96]
000000 4c 51 e1 bb bc d5 09 3e 2c 3e 1f 3d bc f9 3a 3e
       -0.0068761464 0.1346044 0.03887765 0.18259329
000010 e8 cd bd 3b 67 f3 7c 3e 75 a4 30 3d 1c 08 21 3e
       0.005792368 0.24702226 0.04312559 0.1572575
000020 bc ad 0f 3e 4d b3 bb 3d 6f 47 9a bc 7f d2 10 3d
       0.14031118 0.09165058 -0.01883289 0.035356995
000030 72 4b 3b 3e d5 fd 74 3d 00 3d f3 3c de 3f 99 3d
       0.18290499 0.059812386 0.029692173 0.07482885
000040 57 6b 0f 3e 65 4d 17 3e 82 e9 8a be 7d 11 39 3d
       0.1400579 0.14775617 -0.27131277 0.045182694
000050 02 e9 b3 3d 25 83 fa bc b3 43 3f 3e 32 b1 25 3d
       0.08784677 -0.030580113 0.18678169 0.04045219
000060 ab 03 a5 3e c1 a5 f7 3d 44 d4 a3 3e c9 f7 e1 3d
       0.3222936 0.12092162 0.31997883 0.110335894
000070 e3 6a 80 bc 7a 77 e4 bb 79 68 f1 3d e0 d5 86 3b
       -0.015675968 -0.0069722505 0.11787505 0.0041148514
000080 24 aa d0 be 09 0e 09 bf ae 0f ba 3e 5c 08 09 bf
       -0.40754807 -0.5353704 0.36340088 -0.5352838
000090 fc eb 86 be c8 27 7b 3e c9 cc 11 bf 9e e7 3f b8
       -0.26351917 0.24526894 -0.569531 -4.575366e-05
0000a0 fa 04 17 bd 93 6c f6 be 09 29 c9 be 8b 52 f8 be
       -0.03686998 -0.4812971 -0.3928912 -0.48500475
0000b0 1f 2f 0f bf 91 8f 2d 3e 97 a7 c5 be 03 29 e4 bd
       -0.55931276 0.16949297 -0.38604423 -0.11140635
0000c0 36 d5 6f bd dc 9f 71 be ed 1f 76 bd d9 20 79 3e
       -0.058552943 -0.23596138 -0.06008904 0.24328937
0000d0 24 bb f2 3d a5 fc 60 bd 41 fd 2f be 5e 20 ec 3e
       0.118521005 -0.05492844 -0.17186452 0.46118444
0000e0 97 fc c9 be 9e 53 f7 be 16 87 22 bf 2c 32 29 bf
       -0.39450523 -0.48305982 -0.63487375 -0.6609218
0000f0 80 a3 5e be 47 3b 2d be 2e 71 38 be e0 99 f9 bb
       -0.21742058 -0.16917144 -0.18011925 -0.0076172203
000100 f9 e2 75 3e 40 51 f6 be c5 eb 95 be 6c 97 d5 be
       0.24012364 -0.48108864 -0.2928144 -0.41717088
000110 06 f7 0a 3f 76 ea 06 3f 4d 4c 01 bf 18 56 da 3c
       0.5428318 0.5270151 -0.5050705 0.02665238
000120 81 fe 19 bf d3 9b 30 bf c2 cd bc 3e cd 4c 31 bf
       -0.6015397 -0.6898777 0.3687573 -0.69257814
000130 2c 40 a5 3d eb dd 04 be 20 eb 6c 3e 6a 98 f2 3e
       0.080688804 -0.1297528 0.23136568 0.47381908
000140 a5 ab 67 3b 75 1c 1e 3f 75 25 bb be c5 61 6f 3e
       0.003535011 0.6176217 -0.36552015 0.2337714
000150 56 22 1c 3a c7 09 b1 be 67 19 9e 3e e0 83 cd 3d
       0.0005956044 -0.34577772 0.30878755 0.10034919
000160 b8 75 50 bc 39 fb 96 3e 8e 1f 00 bf ec 8d bd 3e
       -0.012723379 0.29488543 -0.5004815 0.3702234
000170 81 e4 e0 3e 09 6b 91 bd a0 16 16 bf 31 e6 c5 bd
       0.43924335 -0.071004935 -0.58628273 -0.09663046

gru_decoder.weight_ih f4 [96, 32]
000000 ca 5f 84 bc ae f9 47 be 97 a5 27 be c4 c8 37 bd
       -0.016158957 -0.19528839 -0.16371761 -0.0448692
000010 59 20 d8 bb de 53 aa be ad 4c 66 bb fe b7 e0 3e
       -0.006595653 -0.3326711 -0.0035140917 0.43890375
000020 ad ea ac 3c b4 80 02 bd 25 44 1c 3e 54 28 b7 bc
       0.021107996 -0.031861022 0.1526037 -0.022358097
000030 f8 a4 e5 bd 8a a2 c1 3b 88 1b 12 bc 55 bd a9 bc
       -0.11213106 0.0059092687 -0.008917697 -0.020720163
000040 06 f0 e9 3d d5 cf 23 3d 6a 16 a7 3b 2d 78 8c be
       0.11422734 0.039993126 0.0050991075 -0.27435437
000050 49 a6 d4 bc 17 68 51 3d e4 4b a0 3c e2 80 18 3f
       -0.025958197 0.05112466 0.019567437 0.5957166
000060 e8 18 4f 3d 0e 1e 66 3c 36 58 1f 3c 3d 4f 8e 3c
       0.05056086 0.0140452515 0.009725621 0.017371768
000070 da 9d d6 bc e6 7c 06 bd 21 41 74 3c a4 8e 41 bc
       -0.026198316 -0.032833956 0.014908106 -0.011813793
000080 cd 99 89 3c 63 1c e1 3e 4d 27 c7 3e 9b ed 4d 3d
       0.01679697 0.4396697 0.38897172 0.050275426
000090 9a a9 0c bd 93 f8 94 3e 56 47 89 3d 3d e8 b5 be
       -0.034341432 0.29095897 0.067030594 -0.35528746
0000a0 09 87 5b bc 1c 4e 82 3e b3 2d 63 be 1d 43 58 be
       -0.013398894 0.25450218 -0.22185402 -0.21119352
0000b0 c0 b1 5f 3e 18 ce a0 3c e7 bc fc 3b bf 6c e5 3d
       0.2184515 0.019629523 0.0077129486 0.11202382
0000c0 78 ec 86 be 99 ec 58 be b6 81 81 bd 60 da 09 3f
       -0.26352286 -0.21184005 -0.063235685 0.5384884
0000d0 13 1e 5b be 4b d5 a9 bd 0f 84 dd 3b b1 9e f2 be
       -0.21398191 -0.082926355 0.0067601274 -0.47386697
0000e0 65 d0 15 be 07 6d 4c 3e ba ed c4 bc 00 0d 74 bc
       -0.14630277 0.19963466 -0.024039138 -0.014895678
0000f0 82 c5 38 3e dc 33 ce 3d 07 5f 8a ba 23 bd 95 3c
       0.18044093 0.10068485 -0.0010556885 0.018278664
000100 5f ba da bb 43 1a 22 3d 78 7d 11 3e 15 c3 49 3c
       -0.006675049 0.039575826 0.14208019 0.012314578
000110 d1 b0 27 3b 63 56 b3 3c d9 5c 24 3d 93 72 6a 3b
       0.0025587569 0.021891778 0.04012761 0.0035773858
000120 18 41 61 bc 7b 7c 6a 3d d1 89 0a bd a7 97 22 bd
       -0.01374843 0.05724762 -0.03382284 -0.03969541
000130 7e 28 c5 3d 52 cd cd 3c 3d 25 9c bb 29 ad 8b 3d
       0.09626864 0.025122318 -0.0047651813 0.06820137
000140 12 75 a9 bd 3b 26 a0 3c 32 33 12 bd c5 c2 4b 3d
       -0.082742825 0.01954948 -0.035693355 0.049746294
000150 cc 50 2d bd c4 c7 30 bd d3 fa 10 3c 80 87 da 3c
       -0.042313382 -0.04315926 0.008848864 0.02667594
000160 4c 7c 95 bd df 6b d5 3b 8d 59 0c 3c 55 2e 4b 3c
       -0.07299098 0.0065131034 0.008566272 0.012401183
000170 82 a9 70 3d 97 1d 0b 3d e0 8f 7a bb 8e bd 22 bc
       0.058755405 0.033963766 -0.003823273 -0.009932889
000180 50 0f 29 3c 4d 5e 2d bc 0f fe c7 3a fb d0 92 bc
       0.010318592 -0.010581565 0.001525821 -0.017921915
000190 db 1e f5 ba 55 0f 0f 3d 70 90 9c bb 1b dc 84 3b
       -0.0018701212 0.03492673 -0.0047779605 0.004054559
0001a0 0f 3e fb 3b 1b dc 33 3b d7 39 b9 3c 3b 03 e7 bb
       0.00766731 0.0027444426 0.022610588 -0.0070499456
0001b0 69 86 1a 3c db 25 b3 b9 29 3c b1 b7 de a0 bb bb
       0.00943146 -0.00034169745 -2.1128059e-05 -0.005725964
0001c0 40 1b d9 bc 61 f9 d0 3b 72 67 5e 3b 34 b4 4b bc
       -0.026502252 0.0063773845 0.003393617 -0.0124331005
0001d0 d0 6a 0d bc b8 31 22 3b 3c 17 a0 bb ae b5 d3 bd
       -0.008631423 0.0024748873 -0.0048855823 -0.10337387
0001e0 7f 67 e9 bb c8 0b 75 3a b2 55 eb bb ff a1 17 bc
       -0.0071229334 0.0009347764 -0.0071818465 -0.0092549315
0001f0 f5 dc e2 3a 92 24 bb bb 49 46 3e bc 68 32 d1 3b
       0.0017308282 -0.0057111466 -0.011613437 0.0063841827
000200 58 8c 07 3c ca 32 2e 3e fc 1f 3c be fc 1e 46 be
       0.008273207 0.17011562 -0.18371576 -0.19347757
000210 73 d7 cd 3b 03 de a4 be 59 34 82 3b aa 1a 57 3d
       0.006281787 -0.32200631 0.0039735255 0.052515663
000220 8c 42 ce bc 84 4d a6 bc 7a 36 bc bc 0e 11 b0 3c
       -0.025178216 -0.020300634 -0.022975195 0.021492507
000230 30 59 80 be 34 0a e6 3a 73 23 b6 3a d0 dd 29 ba
       -0.25068045 0.0017550648 0.0013896063 -0.0006479891
000240 1e 5d a0 3e 6d 08 2b 3c f2 d0 78 bb a5 26 62 3c
       0.31321043 0.010439021 -0.0037966338 0.013803159
000250 66 b0 cc 3c 51 4a a8 bd 33 56 0b bc 17 3f e4 3d
       0.024986457 -0.082173 -0.008504438 0.11144846
000260 6c 97 54 3d cf 94 6f bc ef ec 12 bb 5f 68 ce bb
       0.05190222 -0.014622881 -0.0022419055 -0.006299063
000270 71 98 f4 3d ad c5 fd bb 11 a7 0e bc b6 cd f5 3b
       0.119431384 -0.007744512 -0.008706824 0.0075013293
000280 40 0b a5 bb 1c 42 38 3d 83 69 92 3c e6 2b 51 bc
       -0.0050367415 0.04498492 0.017872578 -0.012766814
000290 8d f0 28 ba 51 1e 1b bd 1e 95 6d bc 7f 56 bb bc
       -0.0006444536 -0.03787071 -0.014500884 -0.022868393
0002a0 0e d7 b2 3c 26 45 6e bc ae 28 13 3c d3 29 2c 3a
       0.021831062 -0.014542853 0.008981867 0.00065675116
0002b0 3f 53 01 3d 49 18 81 3b 66 e7 f9 bb ab f6 eb bc
       0.03157353 0.0039396626 -0.007626462 -0.028804144
0002c0 30 24 3e bd f2 b9 ac 3c 56 55 67 3c d9 6b b1 3c
       -0.04642123 0.02108476 0.014119467 0.021657871
0002d0 c0 d5 49 bb f0 fc 8f ba 55 47 ee ba 85 8b 0f bc
       -0.003079757 -0.0010985415 -0.0018179218 -0.008761291
0002e0 17 6d 29 3b dd 2f 9e bc 59 20 1b 3b 13 25 62 3b
       0.0025852376 -0.019309932 0.0023670404 0.0034506961
0002f0 5d d6 ea 3c 0e 21 e9 bc e2 76 d2 3b 45 04 88 bb
       0.02866667 -0.028458145 0.0064228633 -0.0041508996
000300 02 70 00 bc 0a de 31 be be 23 4f 3d e4 24 cc 3d
       -0.007839205 -0.17369857 0.050571196 0.09967974
000310 9b 04 5b 3c 40 47 e6 3d 0f 84 b6 3c ba 8e 62 3e
       0.013367797 0.112440586 0.022279767 0.22124758
000320 cd 72 08 bc a5 03 16 3d 2d 04 1f 3d a7 fa ed bd
       -0.008328152 0.03662457 0.03882234 -0.11620074
000330 85 6e c2 3d 48 69 3c bb c9 ed bc 3b fa 88 57 3d
       0.09493736 -0.0028749276 0.005765651 0.052620865
000340 e0 23 ec bd ec 22 69 bc 71 ee ac bc 27 ed fa bd
       -0.1153028 -0.014229517 -0.021109791 -0.122522645
000350 24 ab ee bd a5 51 92 bb ed 72 36 3c 9c 22 e0 3e
       -0.11653736 -0.004465299 0.011135799 0.43776405
000360 c4 ee 10 be 21 8c 88 3d 7f 2f 54 3c 14 68 23 3c
       -0.14153582 0.066673525 0.012950777 0.009973545
000370 7e 13 2e bd d5 da 59 3d 48 2d 8f 3b ce 69 f5 bb
       -0.042499058 0.05318721 0.0043694116 -0.0074894195
000380 d4 73 0b 3b eb 3d 13 3e ad da a9 3c f3 de 1d 3c
       0.0021278756 0.14379089 0.020734156 0.009635675
000390 be fd 2f b9 3f f4 83 3e a8 22 8a bc 4b 14 ce be
       -0.00016783827 0.25772282 -0.016862229 -0.40249857
0003a0 5c 6e 06 3d 07 66 dd bd 62 1c 94 bc 9a fc 00 3e
       0.03282009 -0.10810476 -0.01807994 0.1259636
0003b0 cc d8 e9 39 ab c3 40 3b e0 15 43 b9 ec a8 88 bd
       0.0004460275 0.0029413502 -0.00018604798 -0.06672844
0003c0 c1 50 eb bc 83 31 c1 3c f5 c0 50 3c 67 3a 1f 3e
       -0.02872503 0.02358318 0.012741317 0.15549622
0003d0 57 1d 06 3e 5c 2f ab 3d 09 29 b9 bb 5e db 27 bf
       0.1309713 0.083586425 -0.0056506437 -0.655691
0003e0 d4 6a ef 3d b2 c4 d4 bd d5 41 06 bb ee b9 66 bb
       0.11690298 -0.10389079 -0.0020486016 -0.0035206038
0003f0 73 6d 01 be 20 06 94 bd 82 b6 68 bb 4a 61 2b 3b
       -0.12639408 -0.07227731 -0.0035509174 0.0026150518
