last_model.pth (torch, 83362 bytes, 24 tensors)

embed.weight f4 [32, 8]
000000 f4 e1 ad 3e 0d 9f ba 3e f6 06 47 be d0 93 e3 3e
       0.3396145 0.3644947 -0.19436249 0.4444871
000010 84 d1 ce bd 5b 3a 23 3d 8b 4a 1d be 7d 83 43 3e
       -0.10098556 0.039850574 -0.15360467 0.19093128
000020 b3 b1 80 3e 6b a0 a2 be 88 f8 2c 3e 20 ec 4e bd
       0.25135574 -0.31763014 0.16891682 -0.050518155
000030 68 b4 b7 3d 85 c6 80 3d 78 1c 0f 3e 46 db 74 bc
       0.08969957 0.062878646 0.13975704 -0.014944857
000040 b7 62 a3 3e 86 50 c5 3d 75 25 ca be f4 f1 1b 3e
       0.3191125 0.09634499 -0.39481702 0.15229017
000050 ab 2f 3e be a7 12 be bd 3f c2 d9 bd c0 6c 98 3e
       -0.18572871 -0.092809014 -0.106327526 0.2977047
000060 c1 62 a1 be 88 ab 38 be c0 aa 82 be f6 29 c2 bd
       -0.31520656 -0.18034184 -0.25520897 -0.0948066
000070 26 47 d9 3d 52 7b bb be 8a 65 b7 3e 34 e8 24 be
       0.106092736 -0.36617523 0.35819656 -0.16104203
000080 b8 f8 b0 3e 60 d0 f9 3d bf 8e 36 be f4 8a 49 3e
       0.34564757 0.121979475 -0.17827891 0.19681913
000090 46 98 47 3d d5 20 9d 3e 9f 3a d5 3d 6f 05 3d 3d
       0.048729204 0.3068911 0.10411572 0.04614776
0000a0 41 ea 47 3d 81 7d 02 be b8 15 30 3e 83 66 9f 3e
       0.048807386 -0.12743188 0.17195785 0.31132898
0000b0 40 34 cb 3c 55 cd 1e be 58 b5 2c 3d 3d 2d d3 bd
       0.024805188 -0.15508015 0.04216513 -0.10311363
0000c0 dd 0c 0a 3e 84 6c 7b be 14 20 03 be e4 da 7e be
       0.1348147 -0.24553114 -0.12805206 -0.24888188
0000d0 56 3d 5f be ef 3a 65 3e fe 33 28 3d 1a 0d ec 3c
       -0.21800742 0.22385763 0.04106521 0.028814841
0000e0 79 20 04 3e 3a 85 91 ba eb e7 9c 3e 50 9f 6f be
       0.12903012 -0.0011102327 0.3064569 -0.23400617
0000f0 fa ce 81 3e 4e a1 fc bd bf 8d cc 3d 81 b8 98 bd
       0.25353223 -0.12335454 0.099879734 -0.07457066
000100 ea 37 83 3d 49 59 df bd 24 aa ae 3e 81 1c c1 be
       0.06407149 -0.10905702 0.34114182 -0.3771706
000110 c8 61 56 be e8 7a 32 be 50 a8 84 3e d2 18 18 3e
       -0.20935738 -0.17429698 0.25909662 0.14853218
000120 a0 cb 98 3e 7d 85 a7 be 85 08 30 bf d4 05 d9 be
       0.29842854 -0.3271903 -0.68763 -0.4238726
000130 d0 c2 52 be df cb be 3d 26 01 c9 3d e0 a1 86 3e
       -0.20582128 0.09316229 0.09814672 0.26295376
000140 e5 7a 75 be 34 4b 90 be 39 3d a7 3e 4a fd 17 be
       -0.23972662 -0.28182375 0.32663897 -0.14842716
000150 92 68 1f 3e 6f 83 96 bd 0d 01 29 3e 52 2f 64 be
       0.15567234 -0.07349288 0.16504307 -0.22283676
000160 0e ac 4e be 76 78 f1 3d 34 b5 8f 3d 08 6d 29 3c
       -0.20182821 0.11790554 0.07016984 0.0103409365
000170 63 8d 35 3e 05 af 67 3e 5d cc a8 be 22 1c 00 be
       0.17729716 0.22625358 -0.32968417 -0.12510732
000180 3d 06 ba 3e 22 87 aa bd 0f ec e8 be 17 b7 93 be
       0.36332884 -0.08326556 -0.45492598 -0.28850624
000190 11 0f ee bd 8b e3 db 3d cb 24 38 bc 4b 18 38 bd
       -0.116239674 0.1073676 -0.011239241 -0.044945043
0001a0 8e 1d ad bc fc 48 84 be 3b 84 71 bf 28 b3 9c bd
       -0.021132257 -0.25836933 -0.9434239 -0.07651359
0001b0 3d 0d b8 be 84 13 59 be 3b b2 9c 3e e4 c2 96 3d
       -0.359476 -0.21198851 0.3060473 0.07361391
0001c0 fc f5 87 3d b9 71 ba be 34 74 4f be 36 59 51 3d
       0.06638715 -0.36414889 -0.20259172 0.05111047
0001d0 6c b7 27 3d 63 3e 92 be 76 46 54 be 88 ee d6 bd
       0.04094641 -0.28563222 -0.20730004 -0.10494715
0001e0 e8 ed 5c bd 09 19 2f be d0 a3 93 be 5d 86 c9 bc
       -0.053937823 -0.17099394 -0.28835917 -0.024600202
0001f0 5a 00 d6 bd 3e 39 15 be 2c e6 00 be f7 66 42 be
       -0.10449286 -0.14572617 -0.12587804 -0.1898459
000200 70 6e a4 3e ef f2 1f bd 9c 0f 8a 3e ef 81 12 3e
       0.32115507 -0.03905004 0.26965034 0.14307378
000210 b9 7c 38 be c0 48 29 3e 1b 3d de bd 67 ba b2 bd
       -0.18016328 0.16531658 -0.10851499 -0.0872696
000220 e6 1f be be a9 55 ce be 1b b6 06 be 01 95 59 be
       -0.37133712 -0.4029973 -0.13155405 -0.21248247
000230 1d ef 5f 3d 9a fe 88 be db d6 42 3e 35 88 80 be
       0.054671396 -0.26756746 0.19027273 -0.25103918
000240 9f 2f f6 bc fa 64 d2 3d 5c f1 34 3e 50 42 43 3e
       -0.030052004 0.10273166 0.17670196 0.19068265
000250 0e 35 6d 3e 16 f3 66 be 47 f1 98 3d 1d 1e 3a bd
       0.2316477 -0.22553667 0.07467895 -0.045438875
000260 b8 0b 1e bd 5e 4f 7f be 7c 54 0d 3f 48 3e ab be
       -0.038585395 -0.2493262 0.5520704 -0.33445954
000270 44 cb 45 3e 1a 9a 9d 3d 33 4c 41 3d 3d bf 64 be
       0.19315821 0.07695408 0.04719181 -0.22338577
000280 48 6d ab 3e dc b4 b6 3d 2c 2f fe bd 48 54 ee be
       0.33481812 0.08921215 -0.12411341 -0.46548676
000290 de 89 2e 3e 0a 6e c8 bd 0e c1 dc bd 25 3f 52 3e
       0.1704478 -0.09786613 -0.1077901 0.205319
0002a0 79 e9 0c 3e 9b 59 02 be 30 0c 8d be 63 b3 d2 3e
       0.13760938 -0.12729494 -0.2754836 0.41152486
0002b0 84 fc 7c 3e 25 8f fe bd 58 a5 93 bd f1 6f 74 bd
       0.24705702 -0.124296464 -0.07209271 -0.05967707
0002c0 a1 32 5e be 7c 8b 33 3e ce 96 c5 be 88 78 2f bf
       -0.21699001 0.17533678 -0.38591617 -0.6854329
0002d0 69 25 02 3e df 4e ff 3d b9 5f 04 3e 5e 46 57 bd
       0.12709583 0.12466215 0.1292714 -0.05255734
0002e0 60 2f 7a 3e c8 9e 72 3e fe c0 bf 3e 1b cb b8 bd
       0.24432135 0.23693383 0.3745193 -0.09023114
0002f0 40 de 10 be 85 de 82 3d c8 2e 9e 3d 62 c7 e0 3e
       -0.14147282 0.063900985 0.077237666 0.43902117
000300 fc 82 7d 3e d0 b1 a7 3e 8b 30 58 3c f0 a8 92 bd
       0.24756998 0.32752848 0.013195167 -0.071611285
000310 52 5e aa bd 9f 50 04 bd d6 d2 98 3d d8 e5 45 3d
       -0.083187714 -0.03230345 0.07462089 0.0483149
000320 f1 f1 b4 be b1 ad 15 be a4 e0 86 3e 5f 57 06 3c
       -0.35340837 -0.1461704 0.26343262 0.008199542
000330 1e 5e 37 bd 84 82 29 be 79 a0 54 be 0c 35 7c be
       -0.04476749 -0.16553694 -0.2076434 -0.24629611
000340 42 8f c9 bd 47 ca e7 3d 4b 29 e7 3e 5a c6 2d 3e
       -0.098417774 0.11317878 0.45148692 0.16970196
000350 36 88 8c be b3 0b 04 be 45 57 8c bd ef d9 28 3e
       -0.2744767 -0.12895088 -0.06852583 0.16489385
000360 de 26 e0 3b 68 ad ff bd a6 3e 32 3e 6a ee 5e be
       0.006840571 -0.124842465 0.17406711 -0.21770635
000370 3d 19 ee bd d1 22 21 3e 29 b6 03 be 04 0e 70 3d
       -0.116259076 0.15735938 -0.12862457 0.058607116
000380 58 52 a8 be f4 d7 81 3e a1 00 8d 3e 92 46 1f 3e
       -0.32875323 0.25360072 0.27539542 0.15554264
000390 71 67 11 be e5 c2 b2 be 98 d1 8b be 88 d6 75 3e
       -0.14199616 -0.34914318 -0.27308345 0.24007618
0003a0 a4 f2 4e 3e 74 8b 9f 3e 4c d5 3b 3e 23 43 07 3d
       0.20209748 0.31161082 0.18343085 0.03302301
0003b0 05 f4 34 bc e4 12 7c be ae 5d 6a be 5c 0d 84 be
       -0.011044507 -0.24616581 -0.22887298 -0.25791442
0003c0 d8 6e b1 3d e0 cc 59 be b0 e9 a2 bd 10 56 79 be
       0.0866372 -0.2126956 -0.079547286 -0.24349236
0003d0 6f 78 66 bd e2 76 41 be 7a b8 8a be 1f 58 c1 3d
       -0.0562672 -0.18893006 -0.2709387 0.09440636
0003e0 9a 25 51 bd 4a 0a 85 3e c9 94 18 3e c3 07 87 be
       -0.05106125 0.25984412 0.14900507 -0.2637311
0003f0 3a 5a 43 bc 17 1f 28 be 54 c4 18 ba a9 4e 4c be
       -0.011923367 -0.1641811 -0.0005827595 -0.19951881

embed.bias f4 [32]
000000 2b 67 8b 3e d5 a5 90 be 08 b7 77 3e 9a 47 84 3d
       0.27227148 -0.2825152 0.24190915 0.064589694
000010 b8 10 a2 3e 79 ca 99 be 5a 75 61 3e 04 6c 30 be
       0.3165338 -0.30037287 0.22017422 -0.17228705
000020 bf 02 89 3d 6c e3 8c 3e 8e 2c ce bd c9 62 f6 bc
       0.06689977 0.2751726 -0.10067092 -0.030076401
000030 a8 01 7e bd 04 68 97 be e9 74 fc 3d e3 af c6 be
       -0.0620133 -0.29571545 0.12326986 -0.38806066
000040 49 bb 60 3e 52 3f 4b 3e 87 ab ba 3e eb 8c fd bd
       0.21946444 0.19848374 0.3645899 -0.123803936
000050 8c be 8c be 0c 3a 14 3e ef d1 85 3e aa 66 a7 be
       -0.27489126 0.14475268 0.2613673 -0.32695514
000060 23 c0 80 bd 88 c0 77 be 80 06 02 bd 10 1c 78 be
       -0.06286647 -0.24194539 -0.03174448 -0.24229455
000070 31 23 15 be 4e cd a5 bd 9a c2 c6 be de 93 ab 3e
       -0.14564206 -0.080957994 -0.38820344 0.3351125

gnn.att_src f4 [1, 1, 32]
000000 1a 64 66 3d 41 45 76 bc fc ab 0a bd 05 02 05 bd
       0.056247808 -0.01503116 -0.033855423 -0.03247263
000010 e3 a4 b6 3e f7 66 cf 3d 4e 43 83 be 40 0c 08 be
       0.35672674 0.10127061 -0.25637287 -0.13285923
000020 c1 80 19 3e 86 80 32 3e f9 1a 39 bd c3 8e ba bc
       0.14990522 0.1743184 -0.04519174 -0.022773152
000030 d7 4f a6 bd 33 65 30 be c5 44 18 be e6 4b 89 3d
       -0.08120697 -0.17226104 -0.14869983 0.067039296
000040 2d 3b 5a 3d 93 64 c5 3e 4f 75 9a bc 03 ae da bc
       0.05327909 0.38553295 -0.018854765 -0.026694303
000050 f4 b9 9a 3e 9d e8 dd 3d 40 d5 21 bb c5 eb c1 3d
       0.30219996 0.10835383 -0.0024693757 0.094687976
000060 5d 7f d1 3d d5 5f b3 be 52 0d e1 3b bc f1 24 be
       0.10229371 -0.35034052 0.006868043 -0.1610784
000070 db 2f aa 3e 16 65 9a 3e 74 ef 2e 3d 99 6c c2 3e
       0.33239636 0.30155247 0.04270883 0.37973478

gnn.att_dst f4 [1, 1, 32]
000000 9f 55 6a be a7 9d c2 3e 49 22 b7 3e 22 96 fd bc
       -0.22884224 0.38010904 0.35768345 -0.030955378
000010 8a b5 aa be 6c 23 03 be f0 0b f8 bd e7 e8 8a 3c
       -0.33341628 -0.12806481 -0.12111652 0.01695676
000020 ca 92 ca be 5d c1 b5 3d 13 bb 3e be cf 1c cd bd
       -0.39565116 0.08874772 -0.1862605 -0.100152604
000030 ff 44 57 be 17 48 ae bd 6a 88 c5 be ed fa 70 be
       -0.21022414 -0.08509844 -0.38580638 -0.2353322
000040 e0 d9 f6 3c 17 c9 93 3e d3 b2 d1 3e 93 37 aa be
       0.030133188 0.28864357 0.40956745 -0.33245525
000050 6f 4e 41 3e d1 55 7f be a0 a0 ad be d7 97 e2 bc
       0.18877576 -0.2493508 -0.3391161 -0.027660294
000060 51 59 70 be 7f e6 bb be 56 be d0 be a6 0e 97 be
       -0.23471572 -0.36699292 -0.40770215 -0.29503363
000070 34 bf ae 3e 68 c4 69 3e 9a 98 36 be 80 15 96 be
       0.3413025 0.2282883 -0.1783165 -0.29313278

gnn.bias f4 [32]
000000 75 76 2e bd 48 eb 9f bd 09 ca 99 3d 6a f6 af 3d
       -0.04259344 -0.07808548 0.07509238 0.08591922
000010 f9 91 d1 3b cf 13 2a be c1 bb 6a bc 32 d5 9d be
       0.006395575 -0.16609119 -0.014326991 -0.30826718
000020 74 77 2d 3e 3a aa 89 bc ff 76 63 3d 91 07 0f bd
       0.16940099 -0.016804803 0.055533405 -0.034919325
000030 84 6d 90 bd 88 03 bb bd df d2 eb bd 8e 12 af 3d
       -0.070521384 -0.09131533 -0.1151483 0.08548461
000040 b4 33 6c 3d 56 08 7a bd 8e d3 4a be b4 4b c5 3b
       0.057666495 -0.061043106 -0.19807264 0.0060209874
000050 63 89 37 bd 05 ed 00 bc fc 4c 8e 3e b4 15 09 3e
       -0.044808757 -0.00786901 0.2779311 0.13387185
000060 d4 37 0d be 32 3c ff bc 5c f8 4a 3e ac 82 e1 3c
       -0.13790828 -0.031156633 0.19821304 0.02752813
000070 13 89 b9 bb 8a 11 fe 3d ba d0 4a bd 23 53 7f 3d
       -0.0056620925 0.12405689 -0.049515463 0.062335145

gnn.lin.weight f4 [32, 32]
000000 55 97 ec 3d 6d 26 4b bd 1d 16 99 3e d9 4f 13 be
       0.11552302 -0.049597193 0.29899684 -0.14385928
000010 54 5d 64 bd 72 a8 b3 3c 7d c1 7d be 1f 1e 8a 3d
       -0.055753067 0.021930907 -0.24780841 0.067440264
000020 0d 7b 47 be e5 e5 e8 3c 51 03 d1 3b 01 06 e0 3c
       -0.19480534 0.028429935 0.006378569 0.027346613
000030 dc 14 70 be 6e 29 a3 be 8f d0 f4 3d 0e 6c 6f 3e
       -0.23445457 -0.31867546 0.11953842 0.23381063
000040 72 90 75 be 67 16 b3 3d f2 76 49 be 61 34 a2 3b
       -0.23980883 0.08744507 -0.1967428 0.0049500917
000050 13 2c 9e 3e 43 c9 76 3e f4 52 89 be d6 85 5e 3e
       0.30893 0.24100213 -0.268211 0.21730742
000060 3f 5a 3f 3e 9a 96 f5 bc 2c 93 8a 3e 3d 79 13 be
       0.1868677 -0.029979039 0.27065408 -0.14401717
000070 90 a2 eb bd 1c 37 04 be 54 cf 9b 3c 42 ab c2 3d
       -0.11505616 -0.12911648 0.01901976 0.09505321
000080 1d cd 1b bc 59 09 12 be 77 06 31 be 44 80 0c 3e
       -0.009509352 -0.14261378 -0.17287622 0.13720804
000090 06 a0 9b be 84 6f 88 bc 53 c5 93 3c 78 3a 13 be
       -0.30395526 -0.016654737 0.018038427 -0.14377773
0000a0 06 56 3a 3e cd 12 3c 3d 43 51 7e 3e 2a 39 96 3a
       0.18196878 0.045916367 0.24835686 0.0011461128
0000b0 a2 45 6d be 8f 63 7b 3e ca fc 96 3d 3a 58 57 bd
       -0.23171094 0.24549697 0.073724344 -0.052574374
0000c0 03 cd 6c be b9 a3 d6 3d d5 8c a3 be 12 06 ee 3d
       -0.23125081 0.10480446 -0.31943384 0.116222516
0000d0 56 6d f1 3d 22 cb 64 be 9e 7c 31 be f4 85 80 be
       0.11788432 -0.22343114 -0.17332694 -0.25102198
0000e0 df 5c 66 3e bb fa 96 3e ce 15 30 3c ac 63 a6 3e
       0.22496365 0.29488167 0.010747386 0.3249792
0000f0 28 70 87 bd f9 8b a7 be 2c 98 0f 3e 90 b5 9e 3d
       -0.06613189 -0.32723978 0.14022893 0.07749474
000100 8c a8 94 3e 7c 9b ba bb 19 40 65 3e 92 6b 4c 3e
       0.2903484 -0.0056948047 0.22387733 0.1996291
000110 c4 89 57 3e 3c 2c 98 be 08 cc 73 3e 20 83 84 be
       0.21048647 -0.29721248 0.238083 -0.2588129
000120 ef 14 78 3e 21 6a ff bc ef d9 85 be 78 b7 cd 3d
       0.24226736 -0.031178536 -0.26142833 0.100447595
000130 0a 6f a0 bd ce 7d 8a be 4e a5 ce bd 83 b5 2e 3d
       -0.07833679 -0.27049106 -0.10090123 0.04265357
000140 a2 d4 68 3e 3a 00 ab bd 2f cd 46 3e d5 b6 42 3d
       0.22737363 -0.083496526 0.19414209 0.047537643
000150 5f 42 31 bb 63 ba 29 3e 1e f3 4a be 98 77 87 be
       -0.0027047617 0.16575007 -0.19819304 -0.2645843
000160 1e 08 d9 bd ad e8 8a be 1a aa 22 be c6 e6 83 3c
       -0.10597251 -0.27130643 -0.15885201 0.016101252
000170 8b ba 1c be 6d f7 06 be eb 87 49 bd c5 49 1a bd
       -0.15305535 -0.13180323 -0.049201887 -0.03766801
000180 c7 ba 07 be 84 63 92 3c 95 c9 33 ba b5 7e 4c 3d
       -0.13254844 0.017869718 -0.0006858346 0.049925525
000190 3b 4a 54 3d ee 14 3b be 74 93 f6 bd 2d 31 30 3d
       0.051828604 -0.18269703 -0.12039843 0.043015648
0001a0 64 db 22 be 86 8f 3d 3d dc 89 6b bd c8 a0 4f 3d
       -0.15904003 0.046279453 -0.05750452 0.050690442
0001b0 e9 ef 00 3e 7c 9e 4b 3e 15 f4 17 bd 07 f1 83 be
       0.12591518 0.19884676 -0.03709801 -0.25769827
0001c0 f1 b1 3b 3e c7 5e 79 be df 99 8b bc ea c1 05 be
       0.18329598 -0.24352561 -0.017041145 -0.13062254
0001d0 c2 07 95 bd ce b9 d2 bd 41 e5 16 3e f5 6c 5b 3e
       -0.0727687 -0.10289346 0.14735891 0.21428283
0001e0 ad 14 f8 3d 8b 67 7e 3e 21 a8 83 be 82 5f 9d 3c
       0.121133186 0.24844186 -0.2571421 0.01921058
0001f0 76 3b ed 3d f3 93 74 3e a4 56 85 be b4 c3 0f 3e
       0.11583607 0.23884563 -0.26042664 0.14039499
000200 2b 2b 3d be 59 82 3a 3b ac 2f 8c bd 71 a9 80 be
       -0.18473499 0.002845904 -0.0684503 -0.25129274
000210 83 8d 93 be 34 dc 3b be 0e ec 1d 3e 27 25 11 3e
       -0.28818902 -0.1834572 0.15422079 0.14174329
000220 11 70 8d be ac 67 ed bd a3 04 99 3c 9b 83 82 be
       -0.27624562 -0.115920395 0.018678969 -0.25491032
000230 41 33 3b 3e 7c 79 92 3e 22 65 8e 3d 73 3e 65 be
       0.1828127 0.2860831 0.06952883 -0.22387104
000240 95 b5 99 3d 33 eb f9 3d 9c fe 6d 3e 67 8a 0f be
       0.07505337 0.12203064 0.23241657 -0.1401764
000250 13 93 8c be 37 1f 0c 3e b8 97 08 3c 1f 8c e2 bd
       -0.2745596 0.13683783 0.008336954 -0.11061882
000260 b2 c6 0d be ba 30 22 be 2e 54 55 3e c1 be 25 bd
       -0.13845327 -0.158389 0.20832893 -0.04046512
000270 ad 76 47 3e 64 fe 84 3e 97 7d 35 3d 48 ce 32 3d
       0.19478865 0.25975335 0.044309225 0.043653756
000280 18 ba 85 bd 8d ba 63 3e 3e 50 a3 be d0 e6 2c 3e
       -0.06529635 0.22239132 -0.31897157 0.16884923
000290 5e d1 c4 bd ca cf 20 3e d7 4c 54 3d 16 5f 1e be
       -0.09610246 0.15704265 0.051831093 -0.1546596
0002a0 85 61 11 bc 7e c4 52 3e 40 31 2e be df da 1d be
       -0.008873348 0.20582768 -0.17010975 -0.15415524
0002b0 32 ea d0 bd 4e cd 84 bd 34 15 2a 3e a0 07 82 3e
       -0.10200919 -0.06484471 0.16609651 0.25396442
0002c0 e6 f0 a8 bd 21 04 aa 3e 19 2f 32 be aa 4b 05 be
       -0.08249073 0.33206275 -0.17400779 -0.13017145
0002d0 9a 85 33 be b0 5e 56 be 2b 11 d6 bd c5 9c a0 be
       -0.17531434 -0.20934558 -0.10452493 -0.31369606
0002e0 90 6b 9f be 2e a5 f5 3d 67 a5 f2 3d d1 62 a7 3e
       -0.3113675 0.11994396 0.11847954 0.32692578
0002f0 28 5c 93 3e 39 23 6a bd 1c db e2 3d 66 53 56 be
       0.28781247 -0.057162497 0.11076948 -0.20930251
000300 2e 90 16 3e 78 37 9e be ee 00 2b 3e 17 2f ff 3c
       0.14703438 -0.30901694 0.16699573 0.031150384
000310 9a 62 e1 3d 06 54 b1 3d 84 f2 26 be b3 dd 8a 3e
       0.11005135 0.08658604 -0.1630345 0.27122268
000320 3c f5 f9 3d 2b 3c 49 3e 80 48 25 3c f0 2f 3e 3e
       0.12204978 0.19651859 0.010088086 0.18572974
000330 56 0d 58 3e 41 7b e1 3d 2f ff 55 3e ea 89 99 bd
       0.21098837 0.11009837 0.20898126 -0.07497008
000340 9a 9c 58 3e ea 28 2a 3d cb 33 50 3e a4 f8 85 3e
       0.21153489 0.041542925 0.20332257 0.2616626
000350 9c cb b7 3d e3 d9 e2 bd a4 1e cc bc 9c b8 e9 3d
       0.08974382 -0.11076715 -0.024916954 0.114121646
000360 ff 6c a1 3d c4 38 cf bd e8 1e 88 3e 0b fc 23 3e
       0.078821175 -0.10118249 0.2658608 0.16014116
000370 55 15 29 be b9 10 d4 3b 5c 2d 21 bd 06 d0 25 be
       -0.16512044 0.00647172 -0.0393499 -0.16192636
000380 fb 85 ae bc 65 31 d1 bd 3a 48 66 be 47 05 0c bd
       -0.021304121 -0.102144994 -0.2248849 -0.03418472
000390 00 b2 35 be 93 f0 a4 3e 5a 82 0e 3e a4 f9 68 3e
       -0.17743683 0.32214794 0.13916913 0.2275148
0003a0 63 aa 97 3d 4e 0d 88 3d f2 51 42 3e 18 50 e9 3d
       0.074055456 0.06643163 0.18976572 0.1139223
0003b0 4e 7b 9b be 00 3d 04 be d7 c2 d3 bc 05 e0 8c 3d
       -0.30367512 -0.12913895 -0.025849743 0.06878666
0003c0 46 55 56 3d 7f df 3b 3e 00 1b 45 3e 66 0a f1 3d
       0.052327417 0.18346976 0.19248581 0.117695615
0003d0 81 db 32 be 43 a0 83 be d2 3e 2e be f8 96 80 be
       -0.17466547 -0.25708207 -0.17016152 -0.2511518
0003e0 a6 5f d1 3c b9 f2 71 3e b0 47 7c 3e 05 22 0b bd
       0.025558304 0.23627748 0.24636722 -0.03396799
0003f0 d6 f7 df 3b 02 fc 1a be ed c9 13 3d f3 76 5c 3d
       0.0068349643 -0.15135196 0.036081243 0.053824376

gru_encoder.weight_ih_l0 f4 [96, 32]
000000 6b b7 e5 bd ad b9 01 be ae d8 47 bd dc 51 fb 3d
       -0.11216625 -0.12668486 -0.048790626 0.12271473
000010 1d 5a a5 3d c3 bb b8 bd 76 5b 11 3e 61 b3 05 be
       0.08073828 -0.09020188 0.14195046 -0.13056709
000020 cc d7 01 be c9 fe 6e 3d 60 92 fc bd 50 30 ae 3c
       -0.12679976 0.05834845 -0.12332606 0.021263272
000030 4b 34 04 3e 6b 4c d7 bd 32 3b d6 bd e8 80 35 3d
       0.12910573 -0.105126224 -0.10460509 0.044312388
000040 33 fd 0c be 4a 42 36 3e 23 2b 7b bd 08 13 7f 3d
       -0.13768463 0.17798725 -0.061320435 0.06227401
000050 43 16 26 be f8 cf c1 bd 78 93 2f 3d 7c 6c 2a 3d
       -0.1621943 -0.09463495 0.042865247 0.041607365
000060 2f 58 f5 3d bd 22 01 3e ec e4 e1 bc bd de 3e bd
       0.1197971 0.12610908 -0.027574979 -0.04659914
000070 e8 2a 11 3c 22 57 77 bd 41 9f 87 bc 68 74 14 be
       0.008860327 -0.06038583 -0.01655543 -0.1449753
000080 21 2b 3e be 49 79 23 3e 01 63 13 be 2e d1 d8 3d
       -0.1857114 0.15964235 -0.14393236 0.10586773
000090 e0 aa a3 bc 7a 19 a7 3d 98 b8 fa 3d ae bc 70 bd
       -0.01997894 0.08159156 0.1224224 -0.05877369
0000a0 a9 73 82 bd 79 81 ba bb 68 87 cd 3d 09 cb 07 be
       -0.06369717 -0.005691704 0.10035592 -0.13261046
0000b0 b9 94 ce 3d ca 23 88 bd 7c a2 5f bc f4 37 22 3e
       0.1008696 -0.06647451 -0.013649579 0.15841657
0000c0 c9 f2 64 bd 0b 55 34 bd 50 47 54 bd 4f 8c 3f 3e
       -0.0558956 -0.044026416 -0.05182582 0.18705867
0000d0 da b5 0d 3e fb 53 34 bc 3f c7 15 be 3f 05 68 bd
       0.13838902 -0.011006351 -0.14626788 -0.056645628
0000e0 24 d8 35 3e 8b 0a 29 3e ca 45 10 3e 63 f1 c7 bd
       0.17758232 0.16507928 0.14089122 -0.09762838
0000f0 1f 25 35 3e 34 d2 b4 3c 8c 93 2d 3e c4 84 ea 3d
       0.17689942 0.022072889 0.16950816 0.11451104
000100 c0 35 3f 3e 6a 82 75 be ee 96 aa 3e af 06 7e 3d
       0.18672848 -0.2397553 0.33318275 0.062018093
000110 7b e8 90 3e 22 e7 ab be b6 58 de 3d e3 23 a4 be
       0.2830237 -0.33574778 0.10856764 -0.3205863
000120 16 91 a9 3d 1e c3 74 3e 3f 17 97 be 57 e9 a5 be
       0.08279626 0.23902556 -0.29509923 -0.32404587
000130 f8 dd e8 bc 37 b3 91 bd 5d e4 24 3e 9c f4 94 be
       -0.028426155 -0.07114261 0.16102739 -0.29092872
000140 33 f6 f1 3d b1 39 d3 3d f5 89 8c 3e 73 98 67 be
       0.11814537 0.10313738 0.27449003 -0.22616749
000150 78 54 5a be f1 0a 32 3d b0 e4 a9 3d 4d 72 8b bd
       -0.21321285 0.043467466 0.08295572 -0.068089105
000160 fc 0c 5d bd 25 e9 0f be 21 0d 70 be 64 e1 4e 3b
       -0.05396746 -0.14053781 -0.23442508 0.0031567449
000170 4f 34 08 be e7 21 6c be 9e c3 68 be a7 82 11 3e
       -0.13301204 -0.23059808 -0.22730872 0.14209996
000180 b2 3a 1e 3e bb f1 bc bb 4e b8 4b 3e d6 86 7a 3d
       0.15452078 -0.005766121 0.19894525 0.061163746
000190 d3 7c 5e 3e c0 a5 11 be 8a 86 13 bc f9 25 0e be
       0.21727304 -0.14223385 -0.009004245 -0.13881673
0001a0 65 6b bb bd e7 dc 32 bd 40 30 6a be 98 5e 92 bd
       -0.09151343 -0.0436677 -0.22869968 -0.071469486
0001b0 6a 6f 9d bd 7c 23 ef bd d1 87 42 bd 91 8c b6 3d
       -0.07687266 -0.1167669 -0.047492806 0.0891353
0001c0 58 aa 39 3c 21 01 21 3e b8 7a 47 3e 8e 4d 42 be
       0.011332117 0.15723087 0.19480407 -0.18974897
0001d0 d5 15 c0 bd 5b 2b 2e 3e 0b a7 78 3e 40 3c c4 bd
       -0.09379164 0.17008726 0.24282472 -0.09581804
0001e0 3c a8 6d 3d f9 c2 55 be 20 20 44 be 58 d5 95 3d
       0.05802177 -0.20875157 -0.1915288 0.07316083
0001f0 80 49 b9 bd d1 92 cd 3d c4 2f 6e bd 53 29 10 bb
       -0.09047222 0.10037769 -0.05815102 -0.0021997287
000200 8f a9 6f 3e 78 1f b0 3d 3e 7e b3 3d f2 d5 40 bd
       0.23404525 0.08599752 0.08764313 -0.047079034
000210 0f 2c 7f 3d 29 4e 1d be 15 88 45 3e f6 05 7b bd
       0.062297877 -0.15361847 0.19290192 -0.06128498
000220 15 6f c9 3d 75 11 30 3e 66 01 dd ba f8 16 34 be
       0.0983564 0.1719416 -0.0016861379 -0.17586887
000230 f2 44 ab 3d 6a 95 33 3d 07 64 41 bd f1 13 83 3d
       0.0836276 0.043843664 -0.047214534 0.06400288
000240 ac c6 f0 3d fa 77 ee 3c dd 7a 67 bd 0f 8a c9 bd
       0.11756644 0.029109944 -0.056513656 -0.09840786
000250 eb cd 74 be f8 d8 2e 3e 68 f3 4b 3e d5 7d ee bd
       -0.23906676 0.17074955 0.19917071 -0.11645094
000260 b4 16 de 3d 33 fd 08 be 82 7c 00 bd e4 ac 45 be
       0.10844174 -0.13377838 -0.03136874 -0.19304234
000270 a5 f4 9e bd f1 7f 38 3c 64 37 c2 3b 38 3c 83 3d
       -0.07761506 0.011260972 0.0059270132 0.0640797
000280 06 76 77 bd 11 6a c3 3d 8e 30 14 3e 07 8a 77 3d
       -0.06041529 0.09541715 0.14471647 0.060434368
000290 f5 a9 5b bd d4 b5 29 3c 14 8f 0d 3d a6 3c 00 3e
       -0.05362888 0.010358293 0.034560278 0.12523136
0002a0 68 a4 67 3d 33 d1 42 3d 23 0a 7d bc 71 e1 9a 3d
       0.056553274 0.04756279 -0.015444311 0.07562531
0002b0 b4 34 23 bd 1a 02 fd 3d 4e 59 f9 3d 27 a2 24 be
       -0.039845183 0.123539165 0.12175237 -0.16077481
0002c0 c6 0c d5 3c 83 94 f2 bd 9d 04 e1 bd 0b 73 d2 3b
       0.026007067 -0.118447326 -0.10987208 0.0064224056
0002d0 15 65 0a 3b 9a 7e 97 3c 32 12 47 3e 8d d3 04 be
       0.0021117378 0.018492986 0.19440535 -0.12971325
0002e0 dd f8 c6 bd cc 4d 66 bd d1 a4 d4 ba 2a 98 2f bd
       -0.09715436 -0.056226537 -0.0016223436 -0.042869724
0002f0 86 bf 03 3e b0 a5 ce bd fa 34 f7 bd b9 c8 2e 3d
       0.12866029 -0.10090196 -0.12070651 0.042671893
000300 08 3b 03 3e 18 97 36 3d 88 da b8 3d 66 a3 15 3d
       0.12815487 0.044577688 0.090260565 0.036532782
000310 97 24 17 3e e4 38 df 3d e1 66 01 3e 74 aa bc bc
       0.14760052 0.10899523 0.12636901 -0.023030497
000320 56 e8 12 be dc 56 aa bd 0b 5f 88 3d 5d f7 0a 3e
       -0.14346442 -0.08317348 0.06658753 0.13570924
000330 c9 f6 83 bd c2 16 18 3e 17 5b e2 3c 44 70 42 3b
       -0.06443555 0.14852431 0.027631326 0.0029668966
000340 51 95 a1 3b 5f ad 04 bd 89 e4 26 3e 5f 2c 41 3c
       0.00493113 -0.032391902 0.16298117 0.011790364
000350 40 9a e3 3d c3 c0 1e be a7 c3 c2 bd be 21 b1 3c
       0.11113405 -0.1550322 -0.09509974 0.021622535
000360 4a 36 0a 3e 41 8b b0 3d 8a 4b 9d 3c 15 1f 2e be
       0.13497272 0.086203106 0.019201059 -0.17004044
000370 4b 72 16 3b 1c c1 f1 bd 35 70 17 be 4a 84 ad 3c
       0.0022956308 -0.11804411 -0.14788897 0.021181244
000380 9f b8 20 3c 0f ef 21 3d 3e 3e cc 3c 7c 91 2c 3e
       0.009809642 0.039534625 0.024932023 0.16852373
000390 fe 7d 66 3e 24 e4 83 be ed 61 56 3e 21 15 13 be
       0.22509 -0.25759995 0.20935793 -0.14363529
0003a0 95 fb 4f 3e 7f 54 94 3e 6c dd 4b be 94 11 51 be
       0.20310815 0.28970715 -0.19908684 -0.20416862
0003b0 27 a1 11 3d 59 b7 cb bd 71 80 cc 3d 3e b2 5e 3c
       0.035554077 -0.0994708 0.09985436 0.013592301
0003c0 72 c0 0e 3d a6 fb db 3d cd 23 77 3e cb ae 50 bd
       0.0348515 0.107413575 0.2413475 -0.050947946
0003d0 ef 93 6d be 70 69 2e 3e f8 1e 5f bc 31 f2 5a be
       -0.23200963 0.17032409 -0.013618223 -0.21381451
0003e0 b8 88 1f bc 1f 13 2d be 6f 97 5a be 39 47 dd bd
       -0.009737186 -0.16901825 -0.2134683 -0.108046
0003f0 15 93 9e bd 2c fb 66 be 81 8d 75 be c4 5c 50 bd
       -0.077428974 -0.22556752 -0.2397976 -0.05086972

gru_encoder.weight_hh_l0 f4 [96, 32]
000000 0b 6a 37 3e 55 82 53 3e ba 87 db bd c9 93 8f be
       0.17911546 0.20655186 -0.10719247 -0.2804244
000010 d6 91 02 be 5d d7 da 3d 5d 09 d0 bd 8f d8 1f 3d
       -0.12750944 0.106856085 -0.10158036 0.039024886
000020 0c 1f 1d bd b4 7f 03 bd e9 9c a4 3d 0b a8 a2 3d
       -0.038359687 -0.03210421 0.08037741 0.07942208
000030 c1 66 43 be be e4 e8 ba c8 8f 2e be cf b3 df bc
       -0.19082166 -0.0017768366 -0.17047036 -0.02730742
000040 cb 81 ad 3c 0f d8 0b 3c 6e 16 07 be 46 45 b7 bc
       0.021180054 0.008535399 -0.1319215 -0.0223719
000050 76 af 16 be 6e a6 44 3e d0 54 40 bd ce 1b 4d bd
       -0.1471537 0.19204113 -0.046955884 -0.050075345
000060 23 fa ee bd 64 ab 6f 3e de 28 78 3d 06 bb 34 be
       -0.116688035 0.23405224 0.06058585 -0.17649469
000070 ab df a1 3c 0c dd 9a 3e 32 08 3c bd 80 d1 c1 bd
       0.019759974 0.3024677 -0.045906253 -0.09463787
000080 9b f6 52 bc 09 19 a4 bc 19 1b 15 bd 88 95 ab 3c
       -0.012876178 -0.020031469 -0.036402795 0.020945325
000090 86 05 fb 3d bf 92 f5 bc 63 35 05 bd 0e 53 74 3c
       0.12256913 -0.0299772 -0.032521617 0.01491238
0000a0 a7 c9 5d bd 09 fc 43 3e 2c 42 0c 3e 25 3e e1 3c
       -0.05414739 0.19139113 0.13697118 0.027495453
0000b0 2f eb d1 bd b1 22 2e 3d a4 fb ed 3d 50 29 8f 3b
       -0.10249936 0.042513553 0.11620262 0.0043689385
0000c0 46 6d 97 3c 22 0e a7 bd 9b 3d fe bd 45 be 84 bd
       0.018484723 -0.081569925 -0.12414094 -0.064816035
0000d0 39 eb d6 bc 54 95 51 3e 08 cf 28 3d 47 9b 8a 3c
       -0.02623521 0.2046712 0.041213065 0.016919745
0000e0 ca 73 c9 ba c3 db 8e bd 6f 35 62 bd c6 60 d8 bd
       -0.0015369591 -0.0697551 -0.05522674 -0.10565333
0000f0 77 e9 e3 bc a4 d5 41 3e 8e 1f 17 3e a6 02 87 3b
       -0.027821286 0.18929154 0.14758131 0.0041201888
000100 8c d4 8b bc 27 43 4c 3e 28 54 22 3d e6 6a 40 bd
       -0.017069124 0.19947492 0.03963104 -0.046976946
000110 c5 50 d7 bc 56 03 80 3e 12 f2 5a be 21 bf 5d bd
       -0.026283631 0.25002545 -0.21381405 -0.054137353
000120 1f d4 4f bd 6a 0e a0 bb fc 34 be 3d 35 9c b4 3d
       -0.050739404 -0.004884531 0.0928745 0.088188566
000130 d5 81 28 bc 6a 14 be bc 28 1b 35 3e eb b2 00 3e
       -0.010284861 -0.023203094 0.1768614 0.12568252
000140 35 d2 b3 3d ac b8 27 3d 8b 23 34 be 69 bd d0 3c
       0.08780328 0.0409476 -0.17591684 0.025480943
000150 c2 fa 5d be 20 95 69 bd 13 c2 6a bd 4f 8f c4 3c
       -0.21677688 -0.057026982 -0.05731399 0.023994116
000160 0f 31 f3 b9 0e 22 58 3e d5 e5 09 bc 91 d7 89 bd
       -0.00046385123 0.21106741 -0.008416613 -0.06730569
000170 d8 11 42 3d a4 e9 b7 3d 79 87 89 be 7b 64 17 3e
       0.0473803 0.0898011 -0.2686117 0.14784424
000180 0e 9f 86 3c 46 c7 8d bb 80 5f f1 3d dc dc 50 3d
       0.016433265 -0.0043267338 0.11785793 0.050991878
000190 b0 a7 16 3e 66 c8 9c 3d d1 ee 76 ba 89 67 0b 3e
       0.14712405 0.076554105 -0.00094197417 0.13613714
0001a0 40 f3 c7 3c 6b 40 3e 3d 9d 9c 18 be 04 8d 34 3d
       0.024407983 0.046448153 -0.14903493 0.044079795
0001b0 0d 4f 18 be b7 3a dc 3d e5 01 36 be ed 98 0f 3e
       -0.14873905 0.107533865 -0.1777416 0.1402318
0001c0 1c 7f c9 3d 4d 5b 93 be 14 e3 26 bd 15 1b 92 bd
       0.09838697 -0.28780594 -0.040743902 -0.07134072
0001d0 fd fd 8a 3e 63 a6 05 bd cd ff 08 3e 12 00 80 3d
       0.27146903 -0.032629382 0.1337883 0.062500134
0001e0 36 60 17 3c 23 5f 1a 3d 25 12 91 bd fa d5 c7 bc
       0.009239247 0.037688386 -0.07083539 -0.024394024
0001f0 1c cd fc bd 18 e6 03 3e 47 47 88 3d 7d 63 9f bc
       -0.12343809 0.12880743 0.0665422 -0.01945662
000200 2e 4d 61 3e ed cf 49 bd fd df 2b bd 22 c7 7d 3e
       0.22002098 -0.04927056 -0.04196166 0.24782994
000210 14 c8 c5 3c b9 80 b9 3d 12 ff 9b 3d 2c 4b ec bd
       0.024143256 0.09057755 0.0761701 -0.115377754
000220 a8 c6 27 bd 88 76 10 3e f6 01 e6 bd b7 2a e1 bc
       -0.040960938 0.14107716 -0.11230843 -0.027486188
000230 ee 28 04 3e d6 b1 81 3d 67 ab 9a bb d8 0d 1c 3e
       0.12906238 0.06332748 -0.00472014 0.15239656
000240 ba 48 f7 bd a1 3b 68 3e cf 6f 12 3d 1f b2 d0 3d
       -0.12074418 0.22678997 0.03575116 0.10190224
000250 5f b6 93 bd 3d e2 c5 bd 71 05 41 3e 90 12 80 bd
       -0.07212519 -0.09662292 0.18849732 -0.062535405
000260 a3 9d b0 bc b1 56 08 be a7 63 90 3c 65 81 8d 3d
       -0.021559542 -0.1331432 0.017625643 0.06909446
000270 90 e9 cd 3d 57 58 dc bb 58 7a b4 bb 80 33 34 3e
       0.10054314 -0.006724398 -0.0055077486 0.1759777
000280 90 fd 98 3d d5 61 fb bd 23 26 ec bd 7e 43 18 3e
       0.07470238 -0.12274519 -0.115307115 0.14869496
000290 2c 1f 76 3d c1 50 14 bd 61 3c 2c bd 79 eb 66 3d
       0.06008832 -0.036209825 -0.04204977 0.056376908
0002a0 4b 07 28 bd 88 f9 53 3d 9b c3 30 3d e0 e9 58 be
       -0.04102258 0.051751643 0.043155294 -0.21182966
0002b0 3f 09 25 be 48 69 3f 3e 04 b1 03 3e 7d 05 2a 3e
       -0.16116808 0.18692505 0.12860495 0.16603656
0002c0 38 97 6a bd d4 6d a6 3d 2b ef 3f be 4c f4 17 3e
       -0.05727312 0.08126417 -0.18743579 0.14839286
0002d0 46 c6 89 3c f6 aa a6 3d 37 7c 5b 3d 58 ad 95 3d
       0.016818177 0.08138077 0.053585257 0.07308453
0002e0 05 c0 e8 3d 38 9e 4e 3e 4b 09 37 bc 8a b8 39 bd
       0.1136475 0.20177543 -0.011171649 -0.045342006
0002f0 fb 63 fa bd 06 e8 5a be 32 cf 12 3e 15 47 63 bd
       -0.12226101 -0.21377572 0.14336851 -0.05548771
000300 79 34 90 3c d3 f6 91 3e 72 23 0d 3e 14 c2 51 bd
       0.017603146 0.28508624 0.13783053 -0.051210478
000310 7e 1c 28 bd 88 e5 92 bc b2 b8 85 bd db e6 88 bd
       -0.041042797 -0.017931715 -0.065293685 -0.06684657
000320 55 6c 28 be d1 42 a0 3c c6 30 d9 3c 8f e5 c2 bd
       -0.16447575 0.01956311 0.026512515 -0.09516441
000330 8c e0 25 3d b2 72 ad bd 7b c8 fb bd dc 68 01 3c
       0.040497348 -0.08469142 -0.12294098 0.007898536
000340 ce 06 f3 ba 08 53 fb bd dd 6b 9d bd 6c f0 98 bd
       -0.0018541457 -0.12271696 -0.07686589 -0.07467732
000350 23 5a 43 be b0 b1 4f 3e 2c 49 09 be 86 88 fe 3d
       -0.19077353 0.20282626 -0.13406819 0.124283835
000360 41 94 ce 3d 8a 61 65 3c 0e 07 bb bb 4e 8d 09 be
       0.10086871 0.014000306 -0.005707628 -0.1343281
000370 b2 5e e4 3c 03 0e a9 37 dc 1d d1 bd 61 51 62 bd
       0.027877185 2.0152895e-05 -0.10210773 -0.05525339
000380 4a cd b5 3d ad d8 81 3d ef f4 a9 3d d2 41 75 3d
       0.088770464 0.06340156 0.082986705 0.059877224
000390 61 95 89 bd 3f 6b 8b 3d a0 29 b0 bd 74 42 4a 3d
       -0.06717945 0.06807565 -0.08601689 0.04937978
0003a0 dc fd f0 bd ff b5 a2 3d 65 f7 e3 bd 34 56 19 bd
       -0.1176717 0.07944869 -0.11131171 -0.037435725
0003b0 a2 c4 8b be bf 91 2e bd b1 0a 10 3e 54 8d a0 3e
       -0.27298456 -0.042619463 0.14066578 0.31357825
0003c0 f5 ea c4 3d fa 3d 73 3d 2d 4f c1 3c 59 24 ea 3d
       0.09615127 0.059385277 0.023597324 0.11432714
0003d0 34 8b 28 be ea 61 28 3d ed fd 34 3e 8b 91 f8 3d
       -0.16459352 0.041109003 0.1767499 0.12137135
0003e0 6b 67 45 3e ff cb 90 3e f6 1c 13 be f6 36 ba 3d
       0.19277732 0.28280637 -0.14366516 0.09092514
0003f0 5c 44 62 3d 89 97 b3 bd 22 ed 33 3e ed 41 1d bd
       0.055240974 -0.087691374 0.17570928 -0.03839295

gru_encoder.bias_ih_l0 f4 [96]
000000 14 05 ed 3d d9 8d 0f be 5e a3 86 3d 9e 33 17 bd
       0.11573234 -0.14018954 0.065741286 -0.03691446
000010 82 a2 af bd 77 87 2d 3d fd dd 17 3e 22 c4 de 3d
       -0.08575918 0.042365517 0.14830776 0.10877253
000020 cd e8 9e 3d 0b 88 b7 bd 22 04 36 3b 18 03 96 bd
       0.07759247 -0.08961495 0.002777346 -0.07324809
000030 f8 2f 82 bd fe f1 28 3e e7 b9 60 bc 46 9d 70 3e
       -0.063568056 0.16498563 -0.013716198 0.23497495
000040 37 e6 82 3d 7d e1 11 3e 26 70 1d 3e 72 15 81 3d
       0.06391566 0.14246173 0.15374812 0.063029185
000050 fb 10 9b 3d df c9 c6 3d 7b b8 2f 3e a7 9c fd bd
       0.07571598 0.097064726 0.17160217 -0.12383395
000060 fc c3 09 3e b7 15 1e 3e 62 fd c8 bc 5f e2 ca 3b
       0.13453668 0.15437971 -0.024534885 0.0061915363
000070 9a 88 17 3c 3a f5 e3 bd a6 02 bf 3d 43 ce f2 3d
       0.009248877 -0.11130758 0.09326677 0.118557476
000080 a1 a8 4f be c1 e3 32 be 91 02 23 bd ec 71 a5 3d
       -0.2027917 -0.17469694 -0.03979737 0.080783695
000090 ec 10 1c be 6f fa 1c bd 39 60 b8 bd fb 6b 11 3d
       -0.1524083 -0.03832477 -0.09002728 0.03550337
0000a0 d0 61 c7 3c 0e a1 e0 bd 92 c9 c7 bd 44 f8 ee 3d
       0.024338633 -0.10968219 -0.09755243 0.11668447
0000b0 06 d6 6d bd 64 9c f0 bd 58 ac 98 3d 51 df e3 3c
       -0.058065437 -0.11748579 0.07454747 0.027816446
0000c0 d3 2d 10 3d 38 5d 51 3e b4 65 d5 3c e8 2c 3b 3b
       0.03519995 0.20445716 0.026049472 0.0028560702
0000d0 d1 b1 c5 bd 4d 69 23 be d3 1f c4 bd c5 93 0f be
       -0.096530564 -0.15958138 -0.095763825 -0.14021213
0000e0 d7 a7 bd 3b ae 18 40 be 33 39 19 bd 58 b7 c6 3d
       0.0057878303 -0.18759415 -0.037408065 0.09702939
0000f0 8c fa 1e be af 60 9b bd 53 d1 28 be 17 ca 8f 3c
       -0.15525264 -0.075868 -0.16486101 0.017552419
000100 bb 58 9d bc a9 1b c0 bc a9 7b 13 be 0f c8 b5 bd
       -0.019207349 -0.02345069 -0.14402641 -0.08876049
000110 86 27 09 be 47 f1 00 3e fe 8b c6 bd f4 40 90 bd
       -0.13393983 0.1259204 -0.0969467 -0.07043639
000120 e7 bc 35 be f1 c8 1a be 69 47 9d 3c d9 a4 f0 3c
       -0.17747842 -0.15115716 0.01919909 0.02937548
000130 7c 96 3b 3e 00 73 e8 bb 35 9f 31 3e 52 68 14 3e
       0.18319124 -0.007093787 0.17345889 0.1449292
000140 84 9d 3b 3e fc f3 f1 3b b2 41 23 be 4a 39 7d 3d
       0.18321806 0.0073838215 -0.1594303 0.061822213
000150 97 a8 21 3e 02 29 2c bd cb 20 d9 bd 54 c6 09 3e
       0.15786968 -0.042031296 -0.10601958 0.13454562
000160 70 74 83 bc 19 77 1c 3d 9b fb de bd 7e 48 ba 3d
       -0.016046733 0.038199518 -0.10887834 0.09095858
000170 d2 8e 56 3e 0f 69 4d bc ed 62 14 be f7 46 ab bd
       0.20952919 -0.012537255 -0.14490862 -0.08363145

gru_encoder.bias_hh_l0 f4 [96]
000000 73 0c 95 3d 98 78 c6 3d c6 65 4d 3e ef 02 0d 3e
       0.07277765 0.0969097 0.20058355 0.1377065
000010 94 44 97 bd e7 c6 97 bd 02 bd d7 bd 8c 9f d3 3b
       -0.07386127 -0.074109845 -0.10534097 0.0064582285
000020 47 40 c9 bd f9 f8 de bd a3 b0 94 bd 46 8c 4c bd
       -0.09826713 -0.108873315 -0.07260253 -0.049938463
000030 cc c8 4a 3a 6a e4 05 3e c6 3c 91 3d a6 2a 17 3e
       0.00077356095 0.13075414 0.0709167 0.14762363
000040 42 a3 14 be 1b 80 78 bc 91 ed e6 bc b3 55 35 be
       -0.14515403 -0.0151672615 -0.028189452 -0.17708473
000050 4a f2 3b 3e 88 f8 f5 bd 7c 68 ef 3d 9b 9c 62 3e
       0.18354145 -0.12010294 0.11689851 0.22130053
000060 49 33 51 3e 67 67 8f bc 48 82 12 3e 39 c3 0b 3d
       0.2042972 -0.01750536 0.14307511 0.034121726
000070 35 40 f6 3d 95 33 bb 3d 30 29 3e 3e b4 5a 9b 3c
       0.12023965 0.09140698 0.185704 0.018964149
000080 21 cc 48 be cd e9 39 bd a4 f9 71 be c0 8f 80 3d
       -0.19609119 -0.045388985 -0.23630387 0.06277418
000090 34 77 67 be e5 c7 aa bd da 06 75 bd 68 0c b5 3d
       -0.22604066 -0.08338908 -0.059820987 0.08840257
0000a0 1e 13 31 be 1e df 93 bd f9 d7 fb bd a9 c9 b2 bd
       -0.17292449 -0.072202906 -0.12297053 -0.0872987
0000b0 43 55 50 be a1 79 46 3e c1 7f 18 bd f6 7d 97 be
       -0.20345025 0.19382335 -0.03723121 -0.29588288
0000c0 88 8a 11 bd 14 b9 f9 3d 13 b2 da bd 81 84 99 3d
       -0.035532504 0.12193504 -0.10678496 0.07495976
0000d0 6b 3f e6 bd 36 3b 3e bd 73 25 aa 3d 23 ac 75 3d
       -0.11242565 -0.046443187 0.08307924 0.059978615
0000e0 68 25 84 bd f4 9a 3e bd e5 85 d1 3b 68 28 0a bd
       -0.06452447 -0.046534494 0.0063941353 -0.03372994
0000f0 21 c6 9d 3c 13 d6 32 be 96 65 14 be 1d 71 4c 3d
       0.019259514 -0.17464475 -0.14491877 0.04991256
000100 d7 1c 37 bd b3 14 32 bd 90 9e 84 be 1f 9d 88 bd
       -0.04470524 -0.04347677 -0.25902224 -0.066705935
000110 c8 05 9a 3c 29 42 d3 bc 36 a6 dd 3d 02 63 06 be
       0.018801585 -0.025788384 0.10822718 -0.13123706
000120 20 31 92 bd 09 10 4c 3d e8 88 00 be 92 e3 89 bc
       -0.07138276 0.04981998 -0.12552226 -0.016832147
000130 4b 2e 0d bd 83 be 70 be 4b fe 2f bd e2 75 43 3e
       -0.034467977 -0.23510174 -0.042967122 0.19087937
000140 bd 0a a6 bc 15 b0 39 be 06 a1 9d 3d 91 6e 0a bc
       -0.020268792 -0.18133576 0.076967284 -0.008449213
000150 29 4d 0b 3e bc 57 86 3c e1 6e ef 3d 09 11 92 bd
       0.13603653 0.016399257 0.1169107 -0.071321554
000160 51 ca a6 be 46 34 f0 bd 7c e3 38 3b 6d bb 98 3e
       -0.3257623 -0.1172872 0.0028211763 0.29830495
000170 7d e5 e8 3d f9 69 7f bd 07 91 2a be 89 87 c3 bd
       0.113718964 -0.062356923 -0.16656886 -0.09547336

gru_decoder.weight_ih f4 [96, 32]
000000 09 44 18 3e 34 d4 81 3d 3a 9f 2f be af e6 61 be
       0.14869703 0.06339303 -0.17150584 -0.22060655
000010 7d 6e b5 3d 1c d4 87 bd 15 38 4d 3e 88 77 ad bd
       0.088589646 -0.066322535 0.20040925 -0.084700644
000020 97 9b 5b be a1 6a 32 3d ce 8c 33 3e ca fd 88 3d
       -0.21446072 0.04355872 0.17534181 0.066890314
000030 c6 0b d3 3d 19 c8 1e 3e 3f c4 92 bc 92 65 07 be
       0.1030498 0.15506019 -0.017915843 -0.1322234
000040 c5 3f 3e 3e 6e 20 97 bc 39 8f 7e 3d eb ed 48 3d
       0.18579014 -0.01844808 0.062148307 0.04905502
000050 a3 d9 13 be 00 df 92 bd cf 18 eb 3c 58 30 45 3e
       -0.1443849 -0.0717144 0.028698353 0.19256723
000060 3d a4 06 3e 63 b6 a6 3d b2 27 d9 bd 16 53 4e 3c
       0.1314859 0.08140256 -0.106032744 0.012593051
000070 3d 68 44 3e ff 88 e5 bd 43 0e 2d 3e 26 f2 d0 3d
       0.19180389 -0.112077706 0.16899972 0.10202436
000080 4c 2b eb 3d 78 44 9b 3d d6 e3 0b 3e 68 d5 06 be
       0.114828676 0.07581419 0.13661131 -0.13167346
000090 7a 4e 6a 3d f3 8f 22 be 93 05 07 3c 4d a7 14 3e
       0.057203747 -0.15875225 0.008241075 0.14516945
0000a0 32 ed 11 be d5 21 f1 bd 00 09 88 bd b4 76 c2 bb
       -0.14250639 -0.11774031 -0.066423416 -0.0059345607
0000b0 11 4d be bc a0 23 00 be 87 ab 6d 3d be 5d ce bc
       -0.023230108 -0.1251359 0.05802491 -0.025191184
0000c0 9c b8 cb bd df 2c 4a 3c 36 74 45 3d 68 7d 4f 3d
       -0.09947321 0.0123398 0.04820653 0.050656706
0000d0 ce 2e 07 be 59 85 e8 3d c7 55 45 3d 35 82 81 bd
       -0.13201448 0.11353559 0.048177507 -0.06323663
0000e0 3e e7 0b 3e 91 e5 44 3d 30 e1 93 3d 03 91 e1 3d
       0.1366243 0.048070494 0.072206855 0.11013987
0000f0 29 48 25 3c ef 60 27 3e da 11 9c 3c 3c a3 17 3e
       0.010088005 0.16345571 0.019051481 0.14808363
000100 8a ca b9 3d 4e 47 77 3e fe 61 1d 3e 7d 71 fe bd
       0.090718344 0.24148294 0.15369412 -0.1242399
000110 91 f6 1a 3e 55 66 9b 3c 92 4b 4d 3e 5d a3 30 be
       0.1513312 0.018969694 0.20048359 -0.17249818
000120 eb 85 ad bd 37 88 16 3e 2d 23 1e be 18 aa 21 3d
       -0.084728085 0.147004 -0.15443106 0.039468855
000130 88 46 2f 3e 5e 97 e4 bd e6 d8 da 3a 9f 3b 3a 3d
       0.1711675 -0.111616835 0.0016696721 0.045467015
000140 c9 8f d3 3d d8 3c cb bd ca 9c cd bd 68 e8 80 bd
       0.10330159 -0.099237144 -0.10039671 -0.06294328
000150 6a 9e 90 3c 14 66 14 be 44 48 45 be 4d bf 49 bd
       0.017653663 -0.14492065 -0.19265848 -0.049254704
000160 75 c0 37 3d 54 ac 9d bd 7c 06 ed bd a8 d0 eb 3d
       0.044861276 -0.076988846 -0.115735024 0.115144074
000170 e6 8b c5 bd d1 c6 db bd 68 46 00 bc ee 57 cf 3d
       -0.09645824 -0.107312806 -0.007829286 0.10124193
000180 ad 3f 98 bd 65 f8 0c be 20 7f 18 be 08 90 07 bd
       -0.0743402 -0.1376663 -0.14892244 -0.033096343
000190 49 4d 29 3e 73 0d 38 3d b2 03 9e bd 5a ca 0a be
       0.16533388 0.0449347 -0.077155486 -0.13553753
0001a0 22 cf c7 bd b2 f4 58 3c 38 3f 27 3e 45 8e a3 3d
       -0.09756304 0.013241934 0.1633271 0.0798612
0001b0 df 54 3f bd 3e 3d 98 3d da e6 b6 bc a8 d2 1c bc
       -0.0467118 0.07433556 -0.022326875 -0.009571709
0001c0 a7 12 f3 3d af 0e e1 bc ce 76 1a 3d e7 11 7e bb
       0.11868792 -0.027472822 0.037710957 -0.0038767995
0001d0 59 63 a4 3d 42 f2 bf bc 99 aa f7 3d 1c 75 10 be
       0.080267616 -0.023430947 0.12093086 -0.14107174
0001e0 f3 72 22 3e 7b f2 2c be 8a ba c9 bd 4a c4 e4 bd
       0.15864162 -0.16889374 -0.09850033 -0.11170252
0001f0 9b 2f 1b bd d5 61 36 bd 79 13 45 be 2f 65 e3 3d
       -0.037887197 -0.044526894 -0.1924571 0.111032836
000200 a0 aa 17 3d d3 76 2b 3e 13 58 18 be b4 7e 1c be
       0.037027955 0.16744547 -0.14877348 -0.15282708
000210 30 c0 b3 3d aa 3f a2 3d 19 e3 e5 3d 49 b3 ba 3d
       0.08776891 0.07922299 0.11224956 0.09116227
000220 59 e0 1c 3c 01 53 9c 3d 78 b8 4b bd 8f c6 5f be
       0.009574973 0.07633019 -0.04973647 -0.21853088
000230 67 3e 54 be 53 29 ed bd 17 77 4e bd bf 62 ec 3d
       -0.2072693 -0.115801476 -0.05040654 0.11542272
000240 e9 16 20 3e 81 26 c0 bd df 8a 13 3d 19 4b 15 3e
       0.1563374 -0.09382344 0.03602111 0.14579429
000250 fd a2 3f 3c 38 15 62 bd eb f9 94 bd 68 5a 18 3b
       0.011696574 -0.055196017 -0.072742306 0.0023247246
000260 2f f0 3f 3e 04 26 4e bd 2d 37 90 bc ba 89 b8 3d
       0.18743967 -0.050329223 -0.017604435 0.09010644
000270 a7 29 81 bd 8f 8c cd bd bd 77 b4 3c 4d 01 17 3e
       -0.06306773 -0.10036575 0.022029752 0.1474659
000280 c2 03 be 3d 5e 01 8d 3d f6 70 4d be df 29 d2 3d
       0.092780605 0.068850264 -0.20062622 0.102618925
000290 dc c7 31 bd 12 bf 21 be bb ad a1 bd 83 c1 40 bc
       -0.04340349 -0.15795544 -0.078944646 -0.011764887
0002a0 f3 9e 67 be 93 9d ba 3d 33 1c 4e 3e 3f 34 db bd
       -0.22619228 0.09112086 0.20127945 -0.107033245
0002b0 61 e3 d6 3c ea 18 28 3d 26 d9 2e be 78 9a 1d be
       0.02623147 0.041039385 -0.17075023 -0.15390956
0002c0 9b e3 0e be ac d9 53 3e d0 49 4d 3d 09 fc 2a 3e
       -0.13954012 0.20688504 0.05011922 0.16697706
0002d0 ea 2e b5 bd 2e 33 b9 bc a5 ad 43 3d 0b 44 79 3e
       -0.08846839 -0.022607412 0.047773022 0.24342363
0002e0 c1 81 3c be 50 47 c8 3c 4d dd 5a be ad c2 4b bd
       -0.18408872 0.024448067 -0.21373482 -0.049746204
0002f0 31 21 79 bd 34 1d eb bd 52 32 ed 3d 6e 23 7f 3e
       -0.06082267 -0.114801794 0.115818635 0.24915859
000300 29 eb ec 3d db 12 c2 3d 3a 82 90 3c 43 31 1c 3c
       0.11568291 0.09476253 0.017640222 0.009533229
000310 57 fe 1f be d4 da 35 3e 66 0f be 3c 53 c4 dd 3d
       -0.15624367 0.17759258 0.023200702 0.108284615
000320 47 83 e4 bd 62 7e 56 bd 81 30 1e be cb 37 c0 bd
       -0.11157852 -0.05236662 -0.1544819 -0.09385642
000330 bb 27 2b bd 9a 2e 8e 3c f4 26 43 3e 0b cd d1 3d
       -0.041785937 0.017356206 0.19057828 0.10244187
000340 bf 14 9d bd db 26 10 3d 05 71 56 3e 11 b7 94 3c
       -0.07669973 0.035193305 0.20941551 0.0181537
000350 f4 9f ed bc a1 ce b2 bd 91 51 bf 3d 76 65 b3 bd
       -0.029006936 -0.087308176 0.093417294 -0.087595865
000360 6e e0 12 be 08 c3 80 3d 5f a8 32 3d bb ae 35 bd
       -0.14343426 0.06287199 0.043617602 -0.04435609
000370 78 ec 5d be 5c d8 26 3d 0c b2 a1 bd 15 6e 98 bd
       -0.21672237 0.04073368 -0.07895288 -0.074428715
000380 83 b0 86 bd f6 01 1a 3e 27 1e 02 3e 6f 3b de 3d
       -0.06576636 0.1503981 0.12706815 0.1085118
000390 37 f9 97 3d 10 a7 81 3d db 41 34 3e 6e 85 47 bc
       0.07420581 0.06330693 0.17603247 -0.012177808
0003a0 2f 64 8a 3d 31 9d 94 3d 82 34 33 be b7 ce f2 3d
       0.0675739 0.072565444 -0.17500499 0.11855834
0003b0 de 4a 89 3a 33 cc f2 bd 04 c0 0b 3e 00 00 04 be
       0.0010474583 -0.11855354 0.13647467 -0.12890625
0003c0 06 f8 96 3d 9f 0b 1c be c0 0c 27 bd d0 ff 12 be
       0.073715255 -0.15238808 -0.040783644 -0.14355397
0003d0 be b5 0f 3e 8e 17 19 3c f9 b8 02 3e ee 50 15 3d
       0.14034173 0.009343995 0.12765874 0.036454134
0003e0 68 93 a7 bd 4f 3a bf 3c 9d f3 ea 3d 3e 5b cd bd
       -0.081824124 0.023343233 0.11472247 -0.10027169
0003f0 da e0 e5 bd 2e d1 00 bd 0a 99 ef bd a3 8d 2f bd
       -0.11224528 -0.03144949 -0.11699112 -0.042859685
